Training/modeldata/opt_Cosine_lr0.001_Aug_BitMnist_PerTensor_4bitsym_RMS_width64_64_64_bs128_epochs60.pth (torch, 104104 bytes, 4 tensors)

fc1.weight f4 [64, 256]
00000000: 1ac5 233d c435 1cbd d7e2 8abd 9cd7 49bc
00000010: 4f56 b43b 6ee4 0a3c f865 9abc 0116 7fbd
00000020: 40c8 d4bc a48e 0a3d 45b7 6cbc f739 0c3a
00000030: a537 3e3d 8422 22bc ad47 653d b5c4 03bd
00000040: 4679 02bc c56b d73b 00d4 82bd fa25 44bd
00000050: c921 e9bd 42b1 cabd c39b 33bd e58a 39bd
00000060: 920d c6bd 8b0b 47bd 059f 063d 6435 ad3c
00000070: 76e9 363d f84a 823b 3f87 5f3d a358 5d3d
00000080: c375 34bd 3eb9 72bd 2101 b1bd e46e d63b
00000090: a948 a03a ec40 013d 2604 ad3c 0d20 b03d
000000a0: cb65 e93c c7a5 f6bc 7f2c 103d c7ef 893d
000000b0: 9499 1dbd d067 d73d 8e3e 1c3b 43a7 773c
000000c0: 6af5 0abc f727 12bd 879d 80bd 0a0a c7bd
000000d0: 196e aabc 82b5 3fbd 2d74 c93d 808e cb3d
000000e0: 41b2 343d 3690 f736 e4f7 81bd 53ab 48bd
000000f0: f4fa f4bc 40b7 ad3c 4b53 933d 7a98 0e3d
00000100: c788 a0bc 133a 8ebd 1338 8fba f061 043d
00000110: 00bb 42bd 4029 84bc 650e 18bd 8995 c139
00000120: 61ce 07bd eaef 1ebd 663c 94bc 6e7b 8bbd
00000130: 333c 6e3d b24d 5ebd d98c cdbc b053 ee3c
00000140: 1cbc 2c3d 832b 1fbd 1075 05bd e9cc e7bc
00000150: 3a14 d4bc bb3f 60bd a970 85bc 724f dc3c
00000160: 660d b1bd d6ee 6dbd 0c76 4c39 aab6 073d
00000170: adcb 3b3d aee8 5d3c 2f2b 1b3c 0919 443d
00000180: d428 3cbd edee 0d3c 3644 fbbc 4e85 02bc
00000190: 0ece 45bd 21ba bdbb 53a6 14bd 9c73 483d
000001a0: 847c 38bd 687a 1dbe 2eb5 19bd 5d5c 48bd
000001b0: 6512 24bd 6df4 33bd 428b d8bc bd61 2a3c
000001c0: 17f8 88bd 345f cdbd ad38 a8bc 7464 53bd
000001d0: 7ec9 4d3d ec5f 58bd 64ff 0fbe efb1 1e3d
000001e0: 64c9 07be d407 c2bd 2e48 8cbc 23eb 86bd
000001f0: 5e42 42bd 52c2 17bd 5947 433d 910a c63d
00000200: 29dd 2abd ed5d 16be 6e60 04be a5e2 c8bd
00000210: c6a5 74bd 1002 04be 922a 62b9 2543 b73d
00000220: a699 6f3d 89d3 5abd 87ae d7bd d0fa bcbd
00000230: 2ead cabd 95f2 ddbc a3c6 b73d 5ff7 813d
00000240: bbf1 83bd 2b7c 46bd ba0e 1fbe 5829 90be
00000250: a9a5 26be 550b eebd 5890 14bd 87d4 6a3d
00000260: 0ee6 c63d 6294 3a3a 30e4 58bd 800b b6bd
00000270: 69bf 0dbb cfc6 f53d 1560 81bb f3d1 2b3d
00000280: 6b41 363d da4c 423d 4210 9c3b c427 87bb
00000290: 0db7 bbbc 77ad 17be a10e 78be ac41 24be
000002a0: 06e3 0dbe e5c3 6bbb 0a81 823d fdb8 aa3d
000002b0: 558a 413d 8106 5e3d aa44 073e ecd0 1b3d
000002c0: 7482 f93d 5113 473e a4ee 523e c568 4a3e
000002d0: d5df 513e 8fc4 243e dd05 453e ccf3 923d
000002e0: 20f2 ab3d 9da8 833e 2e8b c43e 7638 973e
000002f0: f1f7 833e 769e 723e 51a9 213e 5609 243e
00000300: 2594 233d 0a06 723d 5e86 513e ff2b a93e
00000310: bd32 e33e 32cc f43e 9cb4 0c3f d5d4 a53e
00000320: e92d b43e 0413 af3e 7d2f 493e aa52 5a3e
00000330: db7e fd3d cbb1 b33d 4919 ca3d 0b7c 5c3d
00000340: 34ad e53b aba0 41bb 30b0 b93a 91c8 633d
00000350: 85dc 243e c441 9f3e 5419 673e 4a8a 1c3e
00000360: 5e40 613e 574c b53d 0f28 94bc 1059 ceba
00000370: 7f25 063c 67cf 213d 52d3 54ba 1715 bc3c
00000380: b104 cdbc 9673 aebd 7fe2 1fbe 3662 18be
00000390: 8c0f 16be 6f63 86bd 9b7e 54be 2dd2 31bb
000003a0: e825 e1bd ce61 1abe 5120 acbd e8a2 f9bd
000003b0: 15bf 07be 558e 1bbd 600c 553a b981 2ebd
000003c0: e1a4 e5bc 3b50 143d 56cb f6bc a1de 26be
000003d0: edd1 77be 7460 a1be d2c2 b0be eb70 c4be
000003e0: b782 d4be ea2f 9abe 8b8a 86be 4708 51be
000003f0: 4153 dcbd 26c0 fb3b 7adb ffbb ee20 96bd
0.039982893 -0.038137212 -0.067815475 -0.012319472 0.005503453 0.008477313 -0.01884745 -0.062276844
-0.025974393 0.03382744 -0.014447992 0.00053492136 0.046439786 -0.0098959245 0.05597656 -0.032170016
-0.007963484 0.0065741264 -0.06388092 -0.04788778 -0.11383397 -0.098970905 -0.043849718 -0.045298476
-0.09670557 -0.048594993 0.032866497 0.021143623 0.04465624 0.003976222 0.05457234 0.05403961
-0.04405762 -0.059258692 -0.086427934 0.006543981 0.0012228686 0.031556055 0.021120142 0.08599863
0.028490921 -0.030108346 0.035198685 0.06735187 -0.03847654 0.105178475 0.0023840996 0.015115562
-0.008481363 -0.035682645 -0.06280046 -0.09718712 -0.020804452 -0.04680396 0.09836612 0.09939289
0.04411531 7.377962e-06 -0.063461095 -0.048991513 -0.02990482 0.021205544 0.07193621 0.03481338
-0.01959647 -0.069446705 -0.0010926746 0.032319963 -0.04754162 -0.01613295 -0.037123103 0.0003692324
-0.033155803 -0.03880302 -0.018095206 -0.06810652 0.05816288 -0.054273315 -0.025091575 0.02909264
0.042171583 -0.038859855 -0.032582343 -0.028295951 -0.025888551 -0.054748278 -0.016289072 0.026893351
-0.08645134 -0.0580891 0.00019498932 0.033133186 0.045848537 0.013544245 0.009470745 0.047875438
-0.045937374 0.008662921 -0.030672174 -0.007966353 -0.048292212 -0.0057900106 -0.03629143 0.04893838
-0.045040622 -0.15378726 -0.037526302 -0.04891621 -0.040056605 -0.043934274 -0.02643359 0.010399279
-0.066879444 -0.10027924 -0.020534838 -0.05160947 0.050240986 -0.052825853 -0.14062268 0.03874391
-0.13260418 -0.09474149 -0.017124262 -0.065878175 -0.047426574 -0.037050553 0.047675464 0.09669984
-0.04171482 -0.14684267 -0.1292741 -0.09808854 -0.059728406 -0.12891412 -0.00021568898 0.08948354
0.05849614 -0.053424392 -0.10531335 -0.09227526 -0.09896313 -0.027093211 0.08973434 0.063460104
-0.06442591 -0.04845826 -0.15532961 -0.28156543 -0.16274132 -0.11623255 -0.03627047 0.057331588
0.09711848 0.00071174477 -0.05295199 -0.08888912 -0.0021628982 0.1200081 -0.0039482214 0.04194827
0.04449598 0.047436573 0.0047626803 -0.0041246135 -0.022914434 -0.14812265 -0.2422433 -0.16040677
-0.13856134 -0.0035974917 0.063722685 0.08336065 0.047251064 0.05420542 0.13209787 0.03804104
0.12183085 0.19440962 0.20598847 0.19766529 0.20495541 0.16090606 0.19240518 0.07175407
0.08395791 0.2571458 0.38387436 0.29535264 0.25775102 0.2369326 0.15787245 0.16019186
0.039936204 0.05908779 0.20461413 0.3304138 0.44374648 0.4781204 0.5496309 0.3238894
0.35191277 0.34194195 0.19647022 0.21320596 0.123777114 0.08774146 0.09868104 0.053829234
0.007009173 -0.0029545228 0.0014166888 0.055611197 0.16099747 0.31104863 0.22568256 0.15287128
0.2199721 0.08852451 -0.018085508 -0.0015743095 0.008187651 0.039504435 -0.00081186474 0.022959275
-0.025026651 -0.0851814 -0.15613745 -0.14881214 -0.14654368 -0.06561934 -0.20751421 -0.0027133331
-0.10993558 -0.15076372 -0.08404601 -0.12189275 -0.13256486 -0.037977535 0.0008127149 -0.042604182
-0.028032722 0.036209326 -0.030126255 -0.16295864 -0.24201174 -0.315189 -0.34523636 -0.383674
-0.41505978 -0.3011468 -0.26277575 -0.20413314 -0.10758067 0.007682818 -0.007808146 -0.073304996

fc2.weight f4 [64, 64]
00000000: 3fa5 fb3d 7cf4 c4bd 1294 983a 89a3 bd3a
00000010: c4bc 87bb ea0c b5be 981f 0abe 2315 40ba
00000020: 4802 253e 91b9 0abe c272 86bd da59 dc3e
00000030: 4b16 5d3d 6f2f 403c b6ce 9d3d d07b bdbd
00000040: f4d0 813e 27e3 563f c038 64be 5332 363a
00000050: a83c 05be fc74 e53d 045a 883e 0dc5 8dbe
00000060: 5982 193e ad97 2a3e 84cd a93d cec5 6fbe
00000070: de13 7e3e 2ba4 a33d b5f5 5a3e b32e fb3e
00000080: 125a 7a3d ff4e 923d a819 2fbd 1d42 1d3e
00000090: caa5 7e3e 533a da3c 27ab 923e ecde 8c3c
000000a0: 8518 75bd aad4 c5be c769 47be 720c 94bd
000000b0: dcd3 1fbe 0246 0d3e 6388 9c3e e18b b33d
000000c0: 56da 24be 5fb0 d63e ad24 2bbe 359d 9c3d
000000d0: 65c9 9abe a419 ddbd 32b0 a2bd d6e2 a43d
000000e0: 09f1 cf3d 99de 51bc f8d8 31be aa89 093c
000000f0: 11a6 7ebe 727c bb3c 0db6 c538 8121 50bd
00000100: b80d d03d 60e7 333e 0819 033f 227e 0cbd
00000110: 7981 023e 02c3 1fbb 0a46 9dbe 24c3 293e
00000120: a60e eebe 97dc a93d 45f9 923c b779 29be
00000130: d5c3 a93d 9105 74be 8aaf 353e 6e21 7d3e
00000140: 93a2 a7bd 3860 a33a baab 833e 80d8 d73d
00000150: e027 1bbd ae40 7abe 2799 eabe 6c45 74be
00000160: f95c a6bc 374e 0fbd 3829 8abc ea45 b43d
00000170: c52a c9bb 200e 5bbe 3d39 19be d516 a63d
00000180: 044f b0be 87df babb 3cda 1a3e 5a66 bcbc
00000190: 53f3 7ebe 1f7f 283e 0b2f 42be 0680 1a3b
000001a0: 9824 77be d71c ae3d aa3a d63d 4b1e abbd
000001b0: 071c 293e fad2 15be 0d08 c8bd fd22 a93d
000001c0: f0e7 293e 82ad 62be 4fa3 d4b7 a4c4 bdbd
000001d0: 27e9 923d 44af 103e 5e59 283e 2593 f43e
000001e0: 9167 873d 9de7 5e3d 5fb5 a9be 6319 55bb
000001f0: 7354 a43d c266 abbd c675 493d 3970 cebd
00000200: 5212 2ebe f685 80be c71e 2abe d7d9 743b
00000210: 12c5 293e e248 8a3e 9926 d83d 2acf 253e
00000220: c308 c63c 3f9c 0c3e 1276 2dbe c85b aabd
00000230: cb61 6c3e eb03 87be d7c6 a4bd 0d27 ab3e
00000240: b12b a63e 0bcf 17be 6f79 863e b3a9 72bd
00000250: 8d0a 0e3e cd30 873e 9e48 6d3d 2c98 82bd
00000260: 4777 8abe 9899 afbe 19d7 70be b5c8 9f39
00000270: ddaf 493e 6845 4dbe 009b 24bd be02 a8be
00000280: 7a11 a73d 146e c43c 9a94 a73d 1a08 e83d
00000290: ca2b 283e 9bd7 333b 230a a73e b1fe 71be
000002a0: 50ee 163d c560 7ab9 b7f2 263e dc55 1abd
000002b0: a74d 2abe e0e6 1bbe 80db 6cbe 1b48 40be
000002c0: d86e 9c3d 9c22 933d cf63 e2bd bea2 3f3c
000002d0: ea85 423e f1a0 93be d8da 3bbd af2e 84be
000002e0: 558b 7ebe b609 9b3d 3f61 92be 205b 85be
000002f0: 23d5 8d3d f1d8 973e 93fa b33d d863 02bf
00000300: 0daa b63d 6a91 93bd 951e 003e 7ea5 383e
00000310: bc57 953b 83c4 29be 43bf e13d 0b96 08bd
00000320: be2c 44bd 29af 573d 88c1 2ebe cd43 74be
00000330: 21a7 46bb 96b7 57be e0a5 c7bd 0d21 873e
00000340: c9b8 aa3d 7407 5fbd 4452 2abe 0146 ac3d
00000350: f5d2 213e f1c1 ad3d ce85 da3d c7c5 0dbe
00000360: 1a2b 3f3c 071c 2d3e 9e3d 653d 506b 9b3d
00000370: 9276 59be b714 1fbe 9f21 28be ee24 06be
00000380: 60fd bebd 9c23 92bd 3028 813e 93f2 8ab8
00000390: 8e2c 9bbe 0168 833d 592a b6bd 7054 da3c
000003a0: ae2b 7e3e b3cd 153d a2cc a73e dfb8 a73e
000003b0: 2af1 bebe 7d23 413c 543c 3cbe 2d57 2c3f
000003c0: 1836 aabd 5833 cfbc f2de 733e 40d0 a9bd
000003d0: 79f6 efbc 7f9b 8f3d 4b7f 19bd ea1f 0f3d
000003e0: 5eb1 933e 4398 73b7 4a09 94bc efd1 abbd
000003f0: 9f49 fdbe 976c 8fbe c737 08bf 3650 82be
0.122873776 -0.09616944 0.0011640808 0.0014468293 -0.0041423757 -0.35361415 -0.13488615 -0.00073273684
0.16114151 -0.1354735 -0.06564857 0.430373 0.05397634 0.011730059 0.077054426 -0.09252131
0.2535473 0.83940357 -0.22287273 0.0006950248 -0.1301142 0.112039536 0.26631176 -0.276894
0.1499113 0.16659422 0.08291152 -0.234153 0.24812266 0.07990297 0.21382792 0.49059066
0.061121054 0.071439736 -0.042749077 0.15357251 0.24867931 0.02663914 0.28646204 0.017196141
-0.059837837 -0.38638812 -0.19473945 -0.07228936 -0.15608162 0.13796237 0.30572805 0.08766914
-0.16098914 0.41931435 -0.1671321 0.07647172 -0.30231777 -0.10795906 -0.07943763 0.08051078
0.10153396 -0.012809419 -0.17367923 0.008394638 -0.24868037 0.022886489 9.4276016e-05 -0.0508132
0.10158867 0.17568731 0.5121007 -0.034299977 0.12744702 -0.0024377708 -0.30717498 0.16578346
-0.4649555 0.08294027 0.017941127 -0.16550337 0.08289305 -0.23830248 0.17742744 0.24719784
-0.081853054 0.0012464589 0.25716954 0.10539341 -0.037879825 -0.24438736 -0.4581997 -0.23854607
-0.020308005 -0.0349867 -0.016865358 0.088023975 -0.0061391317 -0.21392107 -0.14963241 0.081098236
-0.34435284 -0.005702916 0.15122312 -0.022998024 -0.24897508 0.16454743 -0.18963258 0.0023574843
-0.24135053 0.085015945 0.10460408 -0.08355387 0.16514598 -0.14631262 -0.097671606 0.082586266
0.16592383 -0.221365 -2.5348416e-05 -0.09266022 0.071733765 0.14129359 0.16440341 0.47768512
0.066115506 0.054420102 -0.33146188 -0.0032516352 0.0802392 -0.08369209 0.049184583 -0.100799985
-0.16999176 -0.25102204 -0.16613303 0.0037361288 0.16579083 0.2700873 0.10554237 0.16192308
0.0241741 0.13731478 -0.16939571 -0.08318287 0.2308418 -0.26370177 -0.08045738 0.3342823
0.3245521 -0.14825074 0.2626452 -0.05924387 0.13871212 0.2640442 0.05793058 -0.06376681
-0.27044126 -0.3429687 -0.23519553 0.00030476382 0.19695993 -0.20046008 -0.040186882 -0.32814592
0.0815763 0.02397827 0.081826404 0.1132967 0.16422954 0.0027441743 0.3262492 -0.23632313
0.036848366 -0.00023877907 0.16303526 -0.037679538 -0.16631185 -0.1522479 -0.23130608 -0.18777506
0.07638329 0.071843356 -0.11054193 0.011696516 0.18996397 -0.28833726 -0.045863003 -0.25816867
-0.24857838 0.075702116 -0.28589818 -0.26046085 0.06925418 0.296577 0.087880276 -0.509336
0.08919153 -0.0720547 0.12511666 0.1803188 0.004557578 -0.1657887 0.110228084 -0.033346217
-0.047894232 0.05265728 -0.17066014 -0.23853989 -0.003031202 -0.21066126 -0.09748435 0.26392403
0.08336026 -0.054450467 -0.16632944 0.0841179 0.1580313 0.08484257 0.106700525 -0.13844977
0.011667991 0.16905223 0.055966966 0.075888276 -0.21236637 -0.15535246 -0.16419075 -0.13100025
-0.09325671 -0.07135698 0.25225973 -6.625536e-05 -0.3030743 0.064163215 -0.08894796 0.026651591
0.2482135 0.036573123 0.3277331 0.32758233 -0.3729337 0.011788246 -0.18382388 0.6732052
-0.08311099 -0.025293037 0.23815516 -0.08291674 -0.029292332 0.070120804 -0.03747491 0.034942545
0.28846258 -1.451938e-05 -0.018070836 -0.08389651 -0.4947023 -0.28012535 -0.5321011 -0.2545182

fc3.weight f4 [64, 64]
00000000: a26b 27be 2e21 0c3e 45c4 16be d120 23be
00000010: eabc 1ebe ac6a c63d 9687 a0be db3b a5bd
00000020: 7e89 a33d a745 e93d 061e 6dbe 5490 54be
00000030: 9228 4cbe 86d7 acbc 36cf 6d3e 6a42 963d
00000040: 7487 bc3c 614c a7be 0463 67be 8f81 20be
00000050: 33bf da3b 2bf8 e7be e76d f0bd 74a9 9d3d
00000060: d092 973d adea 3e3e e42f f4be 03dc 723c
00000070: 0abe 943d 44e9 85be 4597 8ebe 264d 843e
00000080: d2ba b3be f821 23bd 8ea0 0c3e 9c58 af3d
00000090: 0be9 79be e94e 23be 2ec9 743d 1076 943e
000000a0: fe68 4cbb 3304 9abe 719d a3bc 381c 493e
000000b0: 0cb6 603c ad24 c73e d48b 5fbc fe7e a43d
000000c0: 3b9d c63d 5617 283e 1708 43bc e4d3 9b3d
000000d0: c389 99bc c798 143e 484a 2fbe fab6 4b3e
000000e0: fcd5 23be c0a7 173e 348b 8b3d ddb7 1a3e
000000f0: 3cac a93e e656 8dbd 1e5c 12bb 9f23 673d
00000100: a79c 1e3e 1133 fb3c 02f0 79be 37db 9f3d
00000110: 194d ffbd 17b1 0f3e 30b6 7bbd 65bf 0a3e
00000120: af32 7dba 56f0 c63d f93f 5cbe 1685 84be
00000130: eb89 823e b59c 82be 21d6 1a3d c9b7 1fbe
00000140: ab30 ca3d 3432 8d3e 7826 4cbe 4a29 c63e
00000150: 0078 c9bd 5a30 cd3e 8033 213e 31f3 903d
00000160: e7e7 403c 879a b43d f658 84bd fcaf ba3e
00000170: c0bd 78bc d79f 923c d9cc 783e 3bdf 5dbe
00000180: 90c3 87be 000a 83bd 6fc4 6cbe 6fb8 40be
00000190: 1098 113e 9d2c b9bd 2f27 4c3b 5e0c 953d
000001a0: 2887 9e3d 54ff 91bd 06a5 e4bd fbff e9bd
000001b0: c7a7 10bd 7f86 05be 9b37 9ebc 2a29 b23b
000001c0: 405f 973d 2acf 133e 421c 50be cc7a 673e
000001d0: e5bf 423e 2de9 2cbd 93e8 39be 4acd 313e
000001e0: 35c2 8f3d d4dc 9ebe daaa c63e e200 2abd
000001f0: 8039 38be 30da 12bd 9d86 f93d e4e8 a2bd
00000200: 4493 9e3d 1fdc 6dbd 2d52 29be 3415 603c
00000210: 52bd 1ebe c4f3 943d 0e25 a4bd 2d9b 25bd
00000220: 3e92 e2bd 3bb3 fcbd 3383 45be 3816 6d3e
00000230: d79a 5a3e b7ee bdbe 4e83 453e b5a4 9fbd
00000240: a2e1 d13e 5571 97bd d2c2 c73c 3604 c23d
00000250: 449d a2bd be5a 373e b682 a23e ca3a f6be
00000260: af1d a4bd 4ab8 8bbe 2c6f cf3e e67a 023e
00000270: 52c9 aebe 9ddb 0a3e d10b eb3d 6c9b 00be
00000280: 082f 933e 4fae 9a3e 97c3 52be b998 f4ba
00000290: 4e1a 813e 3270 a0be 7deb 84bd 0ddd 8a3d
000002a0: 6f47 a93e add6 713e 7da8 cfb9 0994 8f3e
000002b0: a02b 3ebe 7fb9 b7be 49f0 223e 2f59 e93d
000002c0: 5869 81bd 2f75 a7b8 9646 6abe 51b9 8ebd
000002d0: bbcf 7cbd 1367 39be 3911 b73c 3d0c 54be
000002e0: 0e46 893d e70c 853d 7c34 00bb e77a b6be
000002f0: ac3c 43be 6e7e 1f3e 7647 283b fc7a 863b
00000300: ef2c 883e 74c5 343d 69dc 69be db07 2dbe
00000310: ab3d 11be 0871 9fbd 6902 cb3b 8b8a 9e3e
00000320: 28a8 f1bd affd 243e 2a7e e2bd 6ce6 a43d
00000330: fdb3 9e3e 6ca3 0b3e 6f30 6dbe ec8c 4b3e
00000340: 2a5f 983b 947f cd3c 4c46 e1bb e92d 8ebe
00000350: 3033 f2bd 8753 17bb c040 00be 216c ad3e
00000360: d1b7 fdb9 702e e1bd e642 493c 40a0 4c3e
00000370: 7c52 e4bb 02ce a4bb 2cf2 abbd e9ce fcbd
00000380: 621b 2dbc 0333 20be d751 3d3e f3d4 a43d
00000390: 3458 69bd e62d 813d c7c9 9a3e 4322 7b3d
000003a0: 34ac 583e 96d2 363e 4a26 5d3e a5b8 c6bd
000003b0: 6d83 82bd 058f 8abe 3969 97bd f773 373e
000003c0: 485a 84bd 2a73 21bf 2091 91bb 1641 2e3e
000003d0: 9095 833e 7b45 703c 669d 1ebe b757 09be
000003e0: 3e25 a9be d4e0 aa3d f8d5 1f3e d9b5 ccbd
000003f0: 8e60 9d3e 0ce6 903c 6db2 b1bd b129 a6be
-0.16349652 0.13684532 -0.14723308 -0.15930487 -0.15501752 0.09688315 -0.31353444 -0.08068057
0.07985209 0.11390238 -0.23155984 -0.20758182 -0.19937351 -0.021098863 0.23223576 0.07336886
0.023013808 -0.3267546 -0.22596365 -0.15674423 0.0066756248 -0.45306525 -0.11739712 0.07698336
0.07401049 0.18644209 -0.47692788 0.014822963 0.072628096 -0.2615453 -0.27849784 0.2584011
-0.3510347 -0.039827317 0.13733122 0.08561823 -0.24405305 -0.1594807 0.059762172 0.28996325
-0.003119051 -0.3008133 -0.019972535 0.19639671 0.013715278 0.3889517 -0.0136441775 0.08032034
0.09697958 0.16415152 -0.011903784 0.07608774 -0.018742448 0.14511405 -0.1711818 0.19894019
-0.15999597 0.14810085 0.0681366 0.15109201 0.33139217 -0.0690134 -0.0022332738 0.056430455
0.15489446 0.030663999 -0.24407962 0.07805484 -0.12465877 0.14032398 -0.061453044 0.13549574
-0.00096587365 0.09713809 -0.21508779 -0.25882787 0.25495848 -0.25510183 0.037801865 -0.15597452
0.09872564 0.27577364 -0.1993655 0.38703376 -0.09837341 0.40075952 0.15742302 0.07077635
0.01177404 0.08818536 -0.064622805 0.3646239 -0.015181959 0.017898483 0.24296893 -0.21667187
-0.2651639 -0.06398392 -0.23121808 -0.18820356 0.14218163 -0.090417124 0.0031151285 0.072777495
0.07740623 -0.07128778 -0.11164288 -0.114257775 -0.035316255 -0.13039587 -0.019313624 0.005437036
0.07391214 0.14434496 -0.2032328 0.22605437 0.19018514 -0.04221456 -0.18155126 0.17363468
0.07019464 -0.31027853 0.38802224 -0.04150475 -0.17990685 -0.03585261 0.121838786 -0.079545766
0.077429324 -0.058071252 -0.16535254 0.01367693 -0.15501907 0.07273057 -0.0801488 -0.04043119
-0.1106305 -0.12338873 -0.1928833 0.23153007 0.21348129 -0.37096187 0.1928837 -0.07795087
0.40992457 -0.07394663 0.02438489 0.094734594 -0.07940152 0.17905709 0.3174035 -0.48091727
-0.08013474 -0.2728904 0.40514505 0.12742195 -0.3413797 0.13560338 0.11476863 -0.12559289
0.2874682 0.30211112 -0.20582424 -0.0018661238 0.2521538 -0.31335598 -0.06490228 0.06780443
0.33062312 0.23617049 -0.0003960765 0.2804263 -0.18571329 -0.3588371 0.15911974 0.113939635
-0.06318921 -7.985008e-05 -0.22878489 -0.0696894 -0.061721545 -0.18105726 0.02234708 -0.20707794
0.06702815 0.064966016 -0.0019562533 -0.35640642 -0.19066113 0.15575573 0.002567736 0.0041040163
0.26596782 0.04413362 -0.22837986 -0.16897528 -0.1418368 -0.07785231 0.0061953557 0.30965075
-0.117996514 0.16112398 -0.1105922 0.08051762 0.30996695 0.13636559 -0.23163007 0.19877976
0.0046500163 0.025085248 -0.006874835 -0.27769402 -0.118261695 -0.0023090558 -0.125247 0.33871558
-0.00048392874 -0.109951854 0.012284016 0.19983006 -0.0069678407 -0.005029441 -0.083958 -0.123441525
-0.010565611 -0.1564446 0.1848825 0.08048429 -0.056968883 0.063075826 0.3023207 0.06131197
0.2115944 0.1785377 0.21596637 -0.09703187 -0.06372724 -0.2706224 -0.073931165 0.17915331
-0.06462532 -0.6306635 -0.004442349 0.17017016 0.25700045 0.014665003 -0.1548973 -0.13412367
-0.33036226 0.08343664 0.15608966 -0.09995622 0.30737728 0.01768782 -0.0867661 -0.32453683

fcl.weight f4 [10, 64]
00000000: 49a3 fbbe b3f1 c0be 8916 ccbe fe21 c6be
00000010: 1290 923d 3489 e73e 1971 753d 99cd 77bd
00000020: 4304 07bf ef6c 29bf 9111 153f b3eb 9ebe
00000030: 6412 25bf 3538 aebe edbc 9dbe aea5 283e
00000040: d951 5c3e d023 18bf ae49 d03e 382f 803e
00000050: a089 4a3e 5884 04bf 3dbf 093f af42 c53e
00000060: 8b3d 2d3e fb83 86be 24b9 a4be 9599 21bf
00000070: a168 f3be 61a6 45bf 9b34 c03e 7d54 2bbe
00000080: 2cf4 f2be b02e d8be e5da 66bf 5cc4 88be
00000090: 5ea8 a2be e8e3 0ebf 95dd 1bbe dece 333e
000000a0: 7720 b53e 6302 29bd a02a 23bf cc05 11bf
000000b0: a647 cabe daa4 f83e 09de 043f 7429 223e
000000c0: 8a49 843d 5840 a6be e88b 4a37 0180 6ebf
000000d0: 140d ad3e ce5a 11be 4266 11bf fb1a 3c3e
000000e0: 2520 22bf c374 cebd ad18 03bf 0066 a8be
000000f0: 64b1 e83e ab1d fbbd de3c 9a3e d239 ce3e
00000100: b099 1dbf 1171 f33e ec14 e83e 7cb5 a5be
00000110: 55ba 1cbe 9a16 163f 576e 11bf 7e34 23bf
00000120: 6b48 9c3e 4fff 2ebe cb69 abbe 5ae0 c8be
00000130: 4092 9dbe b938 1b3e ff8f 00bf a816 ee3e
00000140: a345 04bf 5448 22be 3b0b 3c3f f5f5 f3be
00000150: 914c 18bf 6b9c b23e f4d8 4abf d714 a2be
00000160: eced ecbe 12cc f6be 0e69 32be 7b2e f4be
00000170: 2326 efbe de40 a9be 3e09 fdbe 4788 c8be
00000180: 6381 023c f0dd c43e ea30 363e 31c2 d3bd
00000190: c833 98be a08e ecbe c061 1abf 2332 febe
000001a0: 34af 383e 8017 a23e a605 d93e c7fa a2be
000001b0: 0ef0 da3e b058 fabe 6f94 67be 19bb 20be
000001c0: 5b6a f3be cfb1 0fbf 85a6 213e 4004 343e
000001d0: 0477 e8be c961 babe 3807 97be 9eba d93e
000001e0: 1b6f 06bf a54a 983e 8650 f53d 1224 f43e
000001f0: 9c38 f5be 9bfd 363d 7020 33bf 2463 d83d
00000200: 69a8 983e 8461 a2be 22ee c63e 623a 22be
00000210: 3b09 6a3e bdb6 22bf 21ac 433d 93bc 84be
00000220: 4668 e83e 315d 8d3d a5eb 08be aa34 1ebe
00000230: 7c7f 023f 66ba 9a3e a6db 913c 8eb3 03be
00000240: a73c 3fbe 2d6a f33e b3ef 9abe 55a2 583e
00000250: d76f 0abf b7e1 c5be 8d93 21be 14fc 0dbe
00000260: 7fc8 5e3c 8d9f d8be 08fe 213f 1888 f33e
00000270: 54ef 0b3f ca4f 22bf c53c 843b 0c6d cabd
00000280: d046 a23e c8e2 cc3d f3f8 a4be 3ef1 d63b
00000290: 2eff b1be 61f4 d3be cc69 f3be 3f28 a9bc
000002a0: b06b e0be 6d6c a1be 6d6b 0dbf 450b f5be
000002b0: 00fb 22bf 583c a23e e209 15bb 6b0d 903e
000002c0: f601 753c bddb 5f3e fc09 9a3e 8c12 1ebf
000002d0: 64e8 393e 4641 febc 566c d13c 1081 babe
000002e0: 5140 22bf d2c1 b9be 1802 523c 045c a9be
000002f0: 3e47 a2be b5c3 8f3c 9bb5 97be 9b97 f23e
00000300: 550b 9c3e 2ab1 26bf a792 b4be 9b22 cf3e
00000310: e945 9ebe 2496 ecbe 47eb 9d3e 9cee 193f
00000320: 41fe 30bd 2e54 1bbe a2ce 6dbd db9d 08bf
00000330: a79e cdbd f4b0 aabe d712 9bbe a15b be3d
00000340: ca3f 483f 31ef cb3e 5218 c3bd c722 223e
00000350: e2a3 03be cce1 06bf 9600 d9be ca25 b6be
00000360: 0d5a f83e d667 acbe 8d17 bcbe 8287 223e
00000370: 4d24 02be 1fc2 45be 246b 22bf 102a cdbe
00000380: 7463 a23e 3c43 223e 9862 fd3e edcb d1be
00000390: 82bb ad3e aee5 a53e 2bf2 7d3e aa71 9ebc
000003a0: 8d92 7fbd e7bd ecbe 5964 a2be ac49 11bd
000003b0: f9a2 afbe 9390 f5be bb57 a2be f034 9cbd
000003c0: 01bc f6be 06ff 8bbe d145 9f3e eb11 113e
000003d0: 776f f3be 4c6b bf3e ee82 90be 6741 b0be
000003e0: 7a01 a13e 08e2 a83e 5101 223e c196 eabe
000003f0: 93e6 863e e65d 08bf d7fc d4be f2bc c5bd
-0.49148014 -0.37684402 -0.39860943 -0.3869781 0.071563855 0.45221865 0.05992231 -0.060498808
-0.5274088 -0.66181844 0.5822993 -0.310392 -0.64481187 -0.34027258 -0.308082 0.16469452
0.21515597 -0.59429646 0.40681213 0.25036025 0.19779062 -0.5176444 0.5380743 0.38527438
0.16918008 -0.26272568 -0.321725 -0.6312497 -0.47540763 -0.77207 0.37540135 -0.16731448
-0.47451913 -0.4222312 -0.90177757 -0.2671231 -0.3176908 -0.5581651 -0.15221246 0.17559382
0.3537633 -0.04126204 -0.63736916 -0.5664947 -0.39507788 0.48563272 0.519013 0.15836126
0.06459339 -0.32470965 1.2072713e-05 -0.9316407 0.3379904 -0.14194795 -0.5679666 0.18369667
-0.633303 -0.10080864 -0.5120953 -0.3289032 0.45447838 -0.12261518 0.30124563 0.40278488
-0.61562634 0.475472 0.45328462 -0.32365024 -0.15305455 0.5862824 -0.5680899 -0.6375197
0.30524 -0.1708958 -0.3347915 -0.39233667 -0.30775642 0.15158357 -0.5021972 0.4650166
-0.5166876 -0.15847903 0.73454636 -0.47648588 -0.5949183 0.34884962 -0.79237294 -0.31656525
-0.4627527 -0.48202568 -0.17422888 -0.47691712 -0.46708784 -0.33057302 -0.49421114 -0.3916647
0.0079654185 0.38450575 0.17792097 -0.103397734 -0.29727006 -0.46202564 -0.60305405 -0.49647626
0.18035585 0.31658554 0.42387122 -0.31831953 0.42761272 -0.48895788 -0.22615217 -0.15696372
-0.4754208 -0.5613069 0.15786178 0.17579746 -0.45403302 -0.3640273 -0.29497695 0.4252519
-0.52513283 0.2974445 0.11978249 0.4768377 -0.47894752 0.04467545 -0.6997137 0.105657846
0.29815987 -0.31715024 0.38853556 -0.15842584 0.22855084 -0.63560086 0.047771577 -0.2592512
0.45392054 0.069025405 -0.13371141 -0.15449777 0.50975776 0.30220336 0.017804932 -0.12861463
-0.18675481 0.47541943 -0.30261 0.21155675 -0.54076904 -0.3864877 -0.15778942 -0.13865691
0.013597607 -0.42309228 0.63278246 0.4756477 0.5466206 -0.63403 0.0040355646 -0.0988408
0.3169465 0.100041926 -0.32221183 0.00655952 -0.34765 -0.41397384 -0.47541654 -0.020649074
-0.4383216 -0.31528035 -0.55242044 -0.4786016 -0.63664246 0.31686664 -0.0022741486 0.28135237
0.014954081 0.21861167 0.30085742 -0.6174705 0.18155056 -0.031036984 0.025564354 -0.36426592
-0.6337939 -0.36280686 0.012817882 -0.33078015 -0.31694978 0.017549375 -0.2963074 0.4738129
0.30477396 -0.6511408 -0.35268137 0.4045609 -0.30912712 -0.46208298 0.30843565 0.60129714
-0.043211225 -0.15168831 -0.05805839 -0.5336587 -0.10040026 -0.3333813 -0.3028781 0.092948206
0.78222334 0.39830926 -0.09526123 0.15833579 -0.12855485 -0.5268829 -0.4238326 -0.35575706
0.48506203 -0.3367297 -0.36736718 0.15872005 -0.1270916 -0.19312333 -0.63444734 -0.40071154
0.31716502 0.1584596 0.49489284 -0.40975896 0.3393212 0.32401794 0.24799411 -0.019341309
-0.06239562 -0.46238634 -0.31717184 -0.03547065 -0.34304026 -0.47961864 -0.31707558 -0.076272845
-0.4819031 -0.27343005 0.31107953 0.14166991 -0.47545978 0.3738655 -0.2822489 -0.34424898
0.3144644 0.32984948 0.15820815 -0.4581814 0.2634779 -0.5326828 -0.41599151 -0.09655179
