BitNetMCU/modeldata/opt_Cosine_lr0.001_Aug_BitMnist_PerTensor_4bitsym_RMS_width16_16_0_bs128_epochs60.pth (torch, 54618 bytes, 3 tensors)

fc1.weight f4 [16, 784]
000000 4c fb e4 bc 20 9b 4c bd cb 5e 50 3d f0 68 6b 3d
       -0.027951859 -0.049952626 0.05087165 0.057473123
000010 c4 9f c9 3c 45 0c 0a 3d 41 b5 c7 3d c1 82 95 3e
       0.024612315 0.033703107 0.09751368 0.2920132
000020 e9 2f a1 3e 57 75 82 3e b4 ea a5 3e 64 bd b3 3e
       0.31481865 0.25480148 0.32405627 0.3510543
000030 20 06 ad bd c9 28 4a bf 12 3b 66 bf e0 5e 10 bf
       -0.08448434 -0.78968483 -0.89933884 -0.5639477
000040 b7 55 c3 be 7a b0 84 be d9 10 ad bc b1 88 b5 3b
       -0.38151333 -0.2591589 -0.021126198 0.0055399765
000050 f8 f1 a3 3d c9 66 0e 3e fe a3 fd 3d b8 26 a3 3c
       0.08005136 0.13906397 0.12384795 0.019915923
000060 88 35 bc 3d 6f 80 5c 3d 3e e3 2d 3e 2c f5 75 3d
       0.09189898 0.05383342 0.16981217 0.060048267
000070 18 82 47 bc 9c 48 9c 3d 25 01 9c bd cb b4 94 3d
       -0.012177013 0.07631037 -0.07617406 0.07261046
000080 2d ba 0e 3e 30 e2 d4 3d c9 e8 80 3e 96 a9 98 3e
       0.13938208 0.10394704 0.251776 0.29816884
000090 da 25 1c 3e 76 4f a1 3e 6c 8c 92 3e 9a c6 79 3c
       0.15248814 0.31505936 0.28622758 0.015245104
0000a0 9b ba 27 bf ff 31 91 bf d4 30 b6 be c4 27 d5 bc
       -0.6551911 -1.1343383 -0.35584128 -0.026019938
0000b0 f7 8c 88 be dc b1 94 bd a3 d4 3f bc e7 36 a0 3d
       -0.26670048 -0.072604865 -0.011708411 0.07822972
0000c0 54 e3 41 3c 9d 93 eb 3d 16 a0 9a 3d d5 2e 42 3d
       0.011833984 0.115027644 0.07550065 0.047407944
0000d0 f4 f7 35 3d 59 50 2a 3e 3e 3b 8e 3e 66 7c 66 3e
       0.04442592 0.16632213 0.27779573 0.22508392
0000e0 6a 06 8a bb 17 63 cc bd 30 8b dd bd 64 80 b9 3d
       -0.0042121904 -0.099798374 -0.108175635 0.09057692
0000f0 16 50 0b 3e 41 ec 21 3e 18 70 ff 3d 2c e7 52 3e
       0.13604769 0.1581278 0.12472552 0.20595998
000100 89 06 f3 3d b9 db 11 3e 24 81 a0 3d 24 01 8a be
       0.11866481 0.14243974 0.078371316 -0.26953995
000110 20 6b b1 bf ba 9c b8 bf 88 f1 e1 be 69 7d b8 bd
       -1.3860817 -1.4422829 -0.44129586 -0.09008295
000120 e6 c3 0c be 8a 51 96 3d 7b 5e 0d 3e 89 fc 72 3d
       -0.13746604 0.07339771 0.13805573 0.059322868
000130 07 a0 53 3c 99 2d b6 3d 7b 8d 20 3d 1a 35 6a bc
       0.012916571 0.08895416 0.039197426 -0.014294887
000140 24 5c 8e bd 2d f1 86 3e 1e f2 8c 3e 42 a0 88 3e
       -0.06951168 0.26355878 0.2752847 0.26684767
000150 b3 33 9d bb 92 08 1e bd 5b 38 06 bd 26 9c 4c 3e
       -0.004797423 -0.038582392 -0.03276859 0.19981441
000160 6f 60 39 3e a4 36 88 3e 42 93 38 3e 47 fb 1a 3e
       0.18103193 0.26604187 0.18024924 0.15134917
000170 53 01 4c 3e ed 84 0a 3e 24 66 cf 3b 7c 3c 47 bf
       0.1992238 0.1352727 0.006329315 -0.77826667
000180 b1 da 14 c0 6b 33 15 c0 d3 8e 25 bf d6 68 0a be
       -2.3258479 -2.3312633 -0.6467106 -0.13516554
000190 78 9e 5b be a0 d2 47 bc 2d de 52 3e d3 ba a9 3d
       -0.2144717 -0.012196213 0.20592566 0.08287587
0001a0 38 b7 66 bd ed 83 13 3d b2 37 81 bc 6d 00 31 bd
       -0.056327075 0.036014486 -0.015773628 -0.043213297
0001b0 3e e4 a7 bd 9d b0 35 bc 66 65 3e 3e a9 80 34 3e
       -0.081978306 -0.011089471 0.18593368 0.17627205
0001c0 e3 a5 61 bd 9d 21 c9 3c 91 e2 3e 3e f7 f0 16 3e
       -0.055089843 0.02455216 0.18641116 0.14740358
0001d0 4f 31 eb 3d db eb 0a 3e 5f 1d 9a 3d 68 fd 0a 3e
       0.11484014 0.13566534 0.07525133 0.1357323
0001e0 27 71 42 3e 2b 6d b3 3d 50 1c 1a be 82 7d 93 bf
       0.18988477 0.087610565 -0.15049863 -1.1522677
0001f0 0f b8 38 c0 82 ec 20 c0 8f 3e 0e bf 11 48 04 bd
       -2.886234 -2.5144353 -0.55564207 -0.03229529
000200 90 92 8b 3d fe e9 ff b8 c8 8d 8c 3d d7 a7 73 3c
       0.06815064 -0.00012202932 0.0686298 0.014871559
000210 d4 67 8c 3d 2e b7 45 3d 42 ee 6f bd bd 02 23 bc
       0.06855741 0.048270397 -0.05857683 -0.009949383
000220 57 af aa 3c 4c 06 4d be 9b 32 02 be 9d 06 03 3e
       0.020835562 -0.20021933 -0.12714617 0.12795492
000230 9b 8f b4 3c 86 09 cc 3d a0 3d af 3d 1c fa b9 3d
       0.022041133 0.09962754 0.08556676 0.09080908
000240 c5 a8 11 3e 01 83 61 3e 44 ff 23 3e 0c 7f c4 3d
       0.14224537 0.2202263 0.16015345 0.09594545
000250 be d3 84 3d 6a db 6e 3e 97 fb 67 be e7 d7 ff bf
       0.06485699 0.23325887 -0.22654568 -1.9987763
000260 60 c1 87 c0 f5 cc 39 c0 6b 7f 97 be b9 ab 65 bd
       -4.2423553 -2.9031346 -0.295894 -0.05607197
000270 bd 23 45 3d 3a b5 7c 3e 1d ea 8b 3d a9 ab 6d bd
       0.048129786 0.24678507 0.06831763 -0.058025036
000280 db 2c e7 3d 39 1c 86 3b a5 c8 8f bb 48 60 85 bd
       0.112878524 0.00409272 -0.0043879324 -0.06512505
000290 38 2b ac 3d 4f e4 1d be b7 56 99 bd 4e bb 29 3e
       0.08406681 -0.15419124 -0.07487243 0.16575357
0002a0 19 99 42 3d 47 5c f6 3b 54 30 fd 3b e6 b2 e1 3c
       0.047509287 0.0075183245 0.0077267084 0.027551126
0002b0 04 bb a3 bd 84 1a ca 3d af f9 22 3e 94 df 39 3e
       -0.07994655 0.09868339 0.15915559 0.18151695
0002c0 28 4e 46 3e ba a8 18 3e 9c 7f f9 bd 09 d5 05 c0
       0.19365752 0.14908114 -0.12182543 -2.0911276
0002d0 15 66 94 c0 56 73 25 c0 29 55 96 be e9 b2 8d 3d
       -4.637461 -2.5851645 -0.29361847 0.0691889
0002e0 f5 c8 8e 3d 82 a2 27 3e 2b cd 94 3d af 33 8e 3d
       0.06971923 0.16370586 0.07265695 0.069434516
0002f0 c8 c7 8b 3d e1 5e 8d bd 3d 70 38 bd b0 1f b1 bd
       0.068252146 -0.06902862 -0.045028914 -0.08648622
000300 86 41 99 bc 87 03 c4 bd de 56 a4 3b c1 28 70 bc
       -0.018708002 -0.09570985 0.005015238 -0.014658154
000310 82 2d 8d 3d a2 45 47 bc 8d 1c ba 3d f3 48 d3 3c
       0.068934456 -0.012162598 0.09087477 0.02579162
000320 db 19 73 3d 6c a5 ae 3e 7f a6 89 3d ca 99 82 3d
       0.05935083 0.34110582 0.0672121 0.06376989
000330 ce f1 0b 3e 96 4f 52 3e 2a d3 82 bd ab 34 c7 bf
       0.1366646 0.20538172 -0.063879326 -1.5562948
000340 fa 26 64 c0 e9 8e df bf f2 cf 0b be 40 83 8b bd
       -3.564879 -1.7465488 -0.13653544 -0.06812143
000350 a0 8d 4f 3e 74 c2 8b 3e 16 d0 8b 3d 4a e9 12 3d
       0.2026887 0.27296793 0.068267986 0.035867013
000360 55 3b f9 bc 23 4f 56 3d 5f 5a 85 bd ab 13 91 bb
       -0.0304238 0.052321564 -0.065113775 -0.0044273934
000370 32 c9 c2 3b 9f a2 12 bd 21 92 cd 3b 85 a9 b0 3d
       0.0059443945 -0.03579962 0.0062735234 0.08626083
000380 75 65 64 bd d9 92 e0 3d a7 05 7d 3e 30 85 d3 ba
       -0.05576082 0.10965509 0.24709187 -0.0016137715
000390 22 4c d4 3d 10 5e 77 3d 92 40 8c 3d c0 e9 16 3e
       0.10366084 0.06039244 0.06848253 0.14737606
0003a0 30 27 ae 3d bb 9b 0b 3e b7 a9 8f 3d 76 33 18 bf
       0.08503568 0.13633625 0.070147924 -0.59453523
0003b0 95 3a db bf d6 94 9b be d4 84 4f bd c5 22 52 3e
       -1.7127253 -0.3038699 -0.050663784 0.20521076
0003c0 83 b9 b6 3e 29 fd 5a 3e 15 76 a9 3d ad 62 b5 3d
       0.3568841 0.21385635 0.082744755 0.088567115
0003d0 3d 41 31 3d d9 91 01 bd 8a 21 fe 37 d1 fe 32 3d
       0.043275107 -0.03163323 3.0294777e-05 0.043700043
0003e0 69 f8 86 bd d0 55 ac 3d 2a 8f 8d 3d f1 d0 e8 3d
       -0.06590349 0.08414805 0.06912072 0.113679774
0003f0 04 06 c2 3c 77 63 85 bd 12 e1 1a 3e b6 c3 0f 3c
       0.02368451 -0.06513112 0.1512492 0.0087746885

fc2.weight f4 [16, 16]
000000 0d 5b 21 b6 94 9a af be 2e 97 15 3f 26 41 9a be
       -2.4043868e-06 -0.3429762 0.58433807 -0.3012783
000010 7e c1 75 3f 9c 88 02 3e 75 ab 80 3e 73 b7 0c bc
       0.9599837 0.12747425 0.2513081 -0.00858866
000020 c8 ea 80 be 3b 4b 3e bf b7 6b 27 35 39 60 41 3f
       -0.25179124 -0.7433354 6.2369094e-07 0.7553745
000030 4d 3c c0 bf ce ea 80 be 22 fa df 3d ed d9 15 bf
       -1.5018402 -0.25179142 0.10936381 -0.58535653
000040 44 eb 80 be f0 ea 00 3f 3f 52 68 35 2a 49 51 be
       -0.25179493 0.50358486 8.654642e-07 -0.20438066
000050 d8 ea 80 bf 19 9e 87 3f 43 11 87 34 8c 83 29 3e
       -1.0071669 1.0595123 2.515827e-07 0.16554087
000060 ea e6 80 3f b9 52 87 bf 8b bc df 3b 41 60 41 bf
       1.0070469 -1.057212 0.006827896 -0.75537497
000070 f9 eb 00 bf 48 8b 47 3f f0 ea 80 3e 36 60 41 bf
       -0.50360066 0.779469 0.25179243 -0.7553743
000080 b0 60 41 bf f2 ea 00 3f 84 da c6 3e ff e6 80 3e
       -0.7553816 0.503585 0.3883859 0.25176236
000090 ed fd 38 3f a9 7d 11 3f 32 52 81 bf db 5d 24 3e
       0.7226246 0.5683237 -1.0103209 0.16051428
0000a0 32 60 41 3f 52 c9 fe be 58 c4 c2 bf 14 2d 35 3e
       0.7553741 -0.4976297 -1.5216169 0.17692977
0000b0 82 af b0 bf 40 09 01 3f d1 ea 00 3f d3 a6 f6 3c
       -1.3803561 0.5040474 0.503583 0.030108845
0000c0 d9 ea 80 3f 14 eb 80 bf a1 25 a1 bf 66 24 93 bd
       1.007167 -1.007174 -1.2589608 -0.07184677
0000d0 c9 7c 6b b5 4d 57 96 be 27 ee 00 3f 9c ee f5 bd
       -8.772591e-07 -0.2936348 0.5036339 -0.12008402
0000e0 a8 ea 80 bf 2d 82 c4 3f a6 67 41 3f fa d1 8a 3d
       -1.0071611 1.5352226 0.7554878 0.06778331
0000f0 50 60 41 3f bf ea 80 be 23 cf ad b8 6a f1 80 3e
       0.75537586 -0.25179097 -8.287865e-05 0.25184184
000100 ff 4f 89 3d 3f de a2 3f db 92 c4 be 10 26 a1 3f
       0.06704711 1.2724074 -0.38393292 1.2589741
000110 cf ea 00 bf a3 60 41 bf 58 08 87 3e bf 02 4a be
       -0.5035829 -0.7553808 0.26373553 -0.1972761
000120 5b 04 30 3e 3b df 6f ba 46 9b 6d 3f e5 0b 83 be
       0.17189161 -0.00091503904 0.92815053 -0.25595012
000130 39 ea 80 be 82 20 d1 be be 5c 54 3f 0c d6 64 3e
       -0.25178698 -0.40845114 0.82954013 0.22347277
000140 d3 62 36 bf e1 98 02 3e b8 5f c1 bf a4 e9 11 3e
       -0.71244544 0.12753631 -1.5107336 0.14249283
000150 99 25 a1 bf d3 ea 00 3f ed e7 00 bf 5f 66 30 be
       -1.2589599 0.50358313 -0.5035389 -0.17226551
000160 4c 60 41 3f 59 40 58 bf 73 8a 46 3e 25 64 44 bf
       0.7553756 -0.84473187 0.19388752 -0.7671531
000170 8b 70 56 3f ae ec 80 3e a1 08 f7 3e 0a 76 b7 37
       0.83765477 0.25180572 0.4824877 2.1870266e-05
000180 27 62 b4 be b6 18 33 be c1 ea 00 bf d0 ea 80 3f
       -0.35231134 -0.17489895 -0.50358206 1.0071659
000190 ae 3b 41 3f 24 22 b0 3e 04 38 7f 39 d2 92 8f bd
       0.7548169 0.34401047 0.00024339563 -0.070104256
0001a0 66 6f 89 3f 78 01 81 3e e3 ea 80 3e 56 40 e4 bc
       1.0737121 0.25196433 0.25179204 -0.027862709
0001b0 e6 ea 80 3e ad d5 03 bf 7f b4 f4 bd 80 df 27 bf
       0.25179213 -0.5149792 -0.119484894 -0.6557541
0001c0 e7 a3 1f 3f e7 6a 49 3d 31 52 dc bf 77 61 41 bf
       0.6235947 0.049174216 -1.7212583 -0.75539345
0001d0 d2 9a ad ba 55 60 41 3f 6e d1 80 be 3c 0b cf bd
       -0.0013244993 0.75537616 -0.25159782 -0.10109565
0001e0 3e 6f 02 be e8 20 27 bf f5 1d 66 3f db ea 00 bf
       -0.12737748 -0.65284586 0.8988946 -0.5035836
0001f0 fd ea 80 be 52 88 15 3f 7b 74 9d b6 63 99 71 bd
       -0.25179282 0.58411133 -4.6925247e-06 -0.05898417
000200 83 25 a1 bf eb ea 00 3f e6 ea 00 3f 00 33 0a 3d
       -1.2589573 0.50358456 0.50358427 0.033740044
000210 b7 a0 c5 3e f4 c0 b1 3e 75 48 81 bf de c7 b3 bc
       0.38599178 0.34717524 -1.0100237 -0.02194589
000220 ff ea 80 3e f7 ea 80 bf 00 d8 36 37 26 69 15 3f
       0.25179288 -1.0071706 1.0898337e-05 0.5836357
000230 df ea 00 3f e2 f9 0a bf 9e d0 32 3f 21 57 b5 3e
       0.50358385 -0.5428754 0.69849575 0.35418037
000240 c3 84 7e 3f 97 da dc be 58 11 cf b9 1c c7 de be
       0.9942133 -0.4313552 -0.0003949504 -0.43511283
000250 2d fa 68 3f b8 f1 32 3e ae 09 45 3f 3c fb 5c be
       0.9100674 0.17475021 0.76967895 -0.21580213
000260 84 f8 69 be ee ea 80 be 52 57 6e bf d5 ea 00 3f
       -0.22848707 -0.25179237 -0.9310199 0.50358325
000270 26 39 81 bf 33 60 41 3f fa 60 41 3f c7 60 41 3f
       -1.0095565 0.75537413 0.755386 0.75538296
000280 36 db 12 3f 34 04 1e 3f 03 6b f5 b5 02 e0 96 3f
       0.5736574 0.61725163 -1.8285067e-06 1.1787112
000290 f3 89 ff 3e f9 70 80 bf d0 da 1d 3f 5d 02 81 bd
       0.49909934 -1.0034477 0.61662006 -0.06299279
0002a0 42 60 41 3f ea ea 80 3e 5b 3c f3 be 73 38 54 3c
       0.755375 0.25179225 -0.47506985 0.012952912
0002b0 bb 08 79 3e 05 eb 00 3f 49 60 41 3f 19 05 66 bf
       0.24319737 0.5035861 0.75537544 -0.8985153
0002c0 6e 31 89 3e f2 4d 06 3e 5d eb 80 3e 7d 0a 00 bf
       0.26795524 0.13115671 0.25179568 -0.50016004
0002d0 16 18 a8 bf 1f eb 00 bf 4b ed 29 3f 7e f3 da 3b
       -1.313235 -0.50358766 0.66377705 0.0066818586
0002e0 ef ea 80 bf fb 0a 06 bf 6e bb 62 3f 2c 69 b0 3d
       -1.0071696 -0.52360505 0.88567245 0.0861381
0002f0 11 ce e7 b6 b8 39 71 3e 9e b8 80 3e cf ea 80 3f
       -6.9083258e-06 0.23557174 0.25140852 1.0071658
000300 5f 2b 82 be 72 d6 2c be 83 35 01 3f ea ea 00 3f
       -0.25423715 -0.1687868 0.5047228 0.5035845
000310 2b e0 80 be e2 ea 80 3e e3 ce c4 be 83 f7 23 3e
       -0.25171027 0.251792 -0.38439092 0.16012387
000320 bd ce 6f 3f e3 ff fb 3e 6f 4e 8e be f3 aa 0c 3e
       0.9367483 0.49218664 -0.27794215 0.13737087
000330 66 0a a1 bf e9 79 17 3f 33 eb 80 3e 56 60 41 3f
       -1.2581298 0.59170395 0.25179443 0.7553762
000340 c8 70 0a 3f de 8a 34 3e 0e d3 57 bf 3a 19 ed be
       0.5407834 0.17631099 -0.8430642 -0.4630831
000350 bd ea 80 be 63 99 03 3f a9 a4 65 3f af ec 9c bd
       -0.2517909 0.51405925 0.89704376 -0.07662331
000360 e5 5b 06 bf b8 5d 47 3c 15 36 d6 be 0e ff 53 3f
       -0.5248397 0.01216834 -0.41838136 0.8281106
000370 37 77 60 be 7d c2 2c bf 4e 60 41 3f e4 63 c1 bf
       -0.21920477 -0.67484266 0.75537574 -1.5108609
000380 f8 ab 71 3f 79 70 82 be dc 06 83 3f 6a 72 bd b4
       0.9440303 -0.25476435 1.0236468 -3.528724e-07
000390 be fa 9c 3f 46 6e 00 be 40 31 a5 3e be d0 29 be
       1.226402 -0.12542066 0.32264137 -0.16583535
0003a0 0e 61 2c 3e 4f 21 8b 3f c6 ea 80 3e c3 7f 42 bf
       0.16833898 1.086954 0.25179118 -0.759762
0003b0 3c ea 00 3f 21 e7 80 be 66 eb 80 be 5b ee fb b5
       0.50357413 -0.25176337 -0.25179595 -1.8770328e-06
0003c0 c3 60 41 3f ee 1c 50 bf ac 23 34 bd 45 ae 74 bf
       0.7553827 -0.81294143 -0.04397933 -0.95578414
0003d0 f5 5c 9b 38 e7 05 00 3f ca e8 82 be 4c 25 0f be
       7.4082905e-05 0.50009006 -0.2556823 -0.13979071
0003e0 c7 ea 80 3e 84 25 a1 3f 7d 72 c9 3e 87 35 67 3f
       0.2517912 1.2589574 0.3934516 0.9031605
0003f0 68 8d fa 3e c4 6c d5 3e 9a 23 88 bf 0c 1e 42 bc
       0.4893601 0.41684544 -1.0635865 -0.011847984

fcl.weight f4 [10, 16]
000000 5f 65 76 bf c3 7c af 3f 0b 45 82 bf 5c c1 af bf
       -0.9624843 1.3709949 -1.017732 -1.3730884
000010 88 33 8d bf 14 ef 88 3f 6a 95 c8 bf f9 2a 96 3f
       -1.1031351 1.0697961 -1.5670598 1.1731864
000020 3f 61 6c be 5a 3d 12 c0 ab 8c 5f b5 70 ce 7c 38
       -0.23083971 -2.2849946 -8.327867e-07 6.0273742e-05
000030 f6 f2 31 bf f3 da e8 be f6 ab 10 c0 ca fb 69 3f
       -0.69511354 -0.45479545 -2.2604957 0.91399825
000040 4f 1b 92 bf b3 f2 80 bf eb 4c f0 be ed fb e9 3e
       -1.1414584 -1.0074066 -0.46933684 0.45700017
000050 e9 db 96 3f e3 cd 64 be 2d ce 5f bf ea fd 42 bf
       1.1785861 -0.22344165 -0.87423974 -0.7616869
000060 cb 7c af bf c5 fb 69 3f be 7c af 3f 41 f4 ad bf
       -1.3709959 0.91399795 1.3709943 -1.3590165
000070 e8 f6 8f bf 50 16 de 3f 7c 6a 62 bf 01 e9 0f bf
       -1.1247225 1.7350559 -0.8844373 -0.5621491
000080 e5 d8 d3 be 14 e5 76 bf 3c cc 63 bf 45 fc 69 bf
       -0.41376415 -0.96443295 -0.8898351 -0.9140056
000090 d1 7c af 3f b8 fb e9 3f af fb e9 3e 76 7e 92 bf
       1.3709966 1.8279943 0.45699832 -1.1444843
0000a0 70 79 04 3e 64 7b ae bf a5 a1 74 bf b3 fb 69 3f
       0.1293695 -1.3631406 -0.9555915 0.9139969
0000b0 0f bd 8e be d6 fb 69 bf e4 90 20 bf 45 1d 6a bf
       -0.27878615 -0.91399896 -0.62721086 -0.9145091
0000c0 84 a6 ae bf b1 9d 8e bf bb f3 bb be 46 de 96 bf
       -1.3644567 -1.1141874 -0.3670939 -1.1786582
0000d0 7a fb e9 be b1 7c af bf af fb e9 3e d8 15 a8 3f
       -0.45699674 -1.3709928 0.45699832 1.3131666
0000e0 2d c8 83 3f 20 55 d2 be 44 64 99 3f 0c b7 24 bf
       1.0295464 -0.4108057 1.1983724 -0.6434181
0000f0 4d 14 19 be de b5 b2 bf a8 fb 69 3f a7 25 b2 bf
       -0.1494915 -1.3961751 0.9139962 -1.391774
000100 34 3a c1 3f 60 67 ad bf 64 b2 ad bf 8a ca 67 bf
       1.5095887 -1.3547173 -1.3570065 -0.90543425
000110 d5 fb e9 bf fe 7b 22 3e ca 33 12 bf 32 fc 69 bf
       -1.8279978 0.15867612 -0.57110274 -0.91400445
000120 f9 ee 66 bf ca fb e9 3f 94 93 53 bf f8 b2 a2 3f
       -0.90208393 1.8279965 -0.8264706 1.2710867
000130 a3 91 a8 b8 a8 73 dc be d9 16 ea be 68 dd 0c b5
       -8.037991e-05 -0.4305699 -0.45720556 -5.247625e-07
000140 76 57 97 bf 0b b2 35 b5 77 ba e6 be 2d 96 b9 bd
       -1.1823566 -6.768684e-07 -0.45064136 -0.09061847
000150 b0 28 e9 be 87 7a af bf 8b 09 82 3e bd fb e9 3e
       -0.45538855 -1.3709267 0.25397906 0.45699874
000160 32 fc e9 be 92 fc e9 be e9 bb 24 be d5 fb 69 bf
       -0.45700222 -0.45700508 -0.16087307 -0.9139989
000170 f0 d6 e0 be 9f 29 bf bf d3 82 e9 3f bd b5 8f 3f
       -0.43913984 -1.4934577 1.8243049 1.1227337
000180 e8 fb 69 3f cf a7 03 be 22 88 de bf 76 91 f9 3f
       0.91400003 -0.12856983 -1.7385294 1.9497516
000190 47 19 6c bf f0 73 c3 b5 57 f3 0b c0 03 8f ea 35
       -0.9222607 -1.4562374e-06 -2.1867273 1.747598e-06
0001a0 24 78 9d bf 6d b2 fe bf e2 aa 3a bf 7f 0c 9d 3f
       -1.2302289 -1.9898201 -0.72916996 1.2269439
0001b0 44 23 2a c0 f0 fb e9 be c3 53 6f bf f8 37 42 3f
       -2.6584024 -0.45700026 -0.93487185 0.7586665
0001c0 c0 29 19 bd 54 50 d5 3f a1 e4 c4 3f 66 72 e8 bf
       -0.03739333 1.6665139 1.5382272 -1.8159912
0001d0 5b 16 0f 3f 5b 79 0c bf 90 fe e2 3e 8a fb e9 bf
       0.55893487 -0.54872674 0.4433484 -1.8279889
0001e0 55 31 81 bf ff 04 e9 be e0 1f ea 3e be fb e9 be
       -1.009318 -0.45511624 0.45727444 -0.45699877
0001f0 49 1d a7 3f 44 fc e9 be af fb 69 bf f7 1e ea be
       1.3055812 -0.45700276 -0.91399664 -0.4572675
000200 c8 37 6a bf 39 a3 00 bf 9a fb 69 bf df 1a 37 bf
       -0.91491365 -0.5024906 -0.9139954 -0.7152538
000210 bb fb e9 be 0d b2 b0 bf 9e 1e 1b 3f bb fb e9 be
       -0.45699868 -1.3804337 0.60593593 -0.45699868
000220 b4 fb 69 3f a5 fb 69 bf f2 d8 97 bf 32 25 7d bf
       0.91399693 -0.91399604 -1.1863081 -0.9888488
000230 6c 93 99 bf 03 72 af 3f a2 d9 b3 bf d4 74 1b 3f
       -1.1998115 1.3706669 -1.4050791 0.6072514
000240 21 0f 34 3f cb 7c af bf 08 8d b8 3f bf 7c af bf
       0.70335585 -1.3709959 1.4418039 -1.3709944
000250 73 24 09 c0 64 0f c8 b5 c3 fb 69 bf 7e cd 01 b5
       -2.1428497 -1.490564e-06 -0.9139978 -4.8355275e-07
000260 74 99 f5 3e 29 e9 5f 3f a6 fb 69 bf 05 28 89 bf
       0.47968638 0.8746515 -0.9139961 -1.0715338
000270 f4 9c 67 3f 7c 66 0f bf 44 01 09 bf ba fb e9 be
       0.90473866 -0.56015754 -0.53517556 -0.45699865
