BitNetMCU/modeldata/opt_Cosine_lr0.001_Aug_BitMnist_PerTensor_4bitsym_RMS_width64_32_16_bs128_epochs60.pth (torch, 79656 bytes, 4 tensors)

fc1.weight f4 [64, 256]
000000 4c 33 9d 3d 03 c0 90 3d 51 33 76 3d 5c e1 a2 3c
       0.076758 0.07067873 0.060107533 0.01988285
000010 cf 66 85 bd ea 4f 54 bd 63 28 70 3b 0e e6 7a 3c
       -0.0651375 -0.051834024 0.0036645166 0.015313638
000020 2f 93 92 bd 52 2a 1b 3c f5 70 1b bd 21 74 a9 3d
       -0.07156979 0.009470539 -0.03794952 0.08274103
000030 5a f6 a3 bc 95 20 2b 3d 6c d6 6b 3d d3 d3 7c 3c
       -0.02001493 0.04177912 0.057577536 0.015431362
000040 5b ad 17 3d 71 91 44 3d 92 18 64 bd 72 0f b1 3c
       0.03703056 0.047990266 -0.055687495 0.02161381
000050 a9 e3 04 3b e4 30 9a 3c e3 4f d0 3d f8 f6 7e bd
       0.0020277298 0.018822141 0.10171487 -0.062247247
000060 b7 28 70 bd 71 51 9f bd 0c 9c 33 3a d0 71 97 bb
       -0.05863258 -0.077792056 0.0006851561 -0.004621722
000070 30 fb 30 bc 08 9c 16 3d 09 9d 5e 3d 58 37 85 3d
       -0.010802075 0.036769897 0.05434898 0.065046966
000080 35 ca dd 3c a0 2a bd bc be 2f 9b 3d 94 25 b0 bd
       0.027073959 -0.023091614 0.075774655 -0.086009175
000090 96 50 01 be bb e1 50 3b 10 26 cf 3b ec 8a 63 bd
       -0.12628397 0.0031872827 0.006321676 -0.055552408
0000a0 8f 43 46 3d 6a df 17 ba 61 da 6d 3d e1 ca ce 3d
       0.048404273 -0.0005793484 0.05806959 0.1009729
0000b0 50 04 d4 3a a5 0a be 3c e3 fe 46 bd 0f 35 eb 3c
       0.0016175602 0.023198435 -0.048582923 0.028711824
0000c0 b1 39 88 3d 07 60 8f 3d 05 34 9e 3b 3a b1 80 3d
       0.06651629 0.07000738 0.0048279786 0.06283803
0000d0 26 01 b9 bc 15 1d 16 3c d6 1e 95 3d d7 dd 1b bd
       -0.022583555 0.009162207 0.07281272 -0.03805336
0000e0 2f a9 c0 3c d2 18 d5 bd b4 2c 23 3d 6b 90 90 3d
       0.023518173 -0.10405125 0.039837554 0.070587955
0000f0 08 e1 15 3d ba f4 46 3d e8 cc c0 bd 26 d8 f7 bc
       0.03659156 0.048573233 -0.09414083 -0.030254435
000100 e4 26 89 3c 11 57 ac bc a7 cd 34 bb 06 8f 86 bd
       0.016742177 -0.02103761 -0.0027588399 -0.06570248
000110 4f f3 11 be 64 4c fc 3a c3 21 cf bd 55 3c 6c bb
       -0.14252971 0.001924884 -0.101138614 -0.0036046703
000120 0d a5 79 3d 9b 97 4d be dc 67 d3 3d 56 dc fd 3d
       0.06094842 -0.20077364 0.10322544 0.12395541
000130 cd 8d 95 3d 5f 62 af 3d 3c aa 41 3c 40 cd 0f be
       0.07302437 0.08563685 0.011820372 -0.1404314
000140 8d 41 b9 3d e5 d4 4d 3d c4 d3 52 3d c3 27 cc 3c
       0.09045706 0.05025186 0.051471487 0.024921304
000150 58 d1 a3 bc 73 70 e8 bc dc 9e e8 bd 4e 70 81 3d
       -0.019997284 -0.028373932 -0.11358425 0.063202485
000160 28 48 df bc 7d 50 1e bf 99 90 88 3e 58 27 79 3e
       -0.027256086 -0.61841565 0.2667282 0.24331415
000170 51 13 06 3d cf 1e 8a 3d 6d 9a 8e bd 95 cc 12 be
       0.032733265 0.067441575 -0.06963048 -0.14335854
000180 ce 4d 45 3d cc 55 b9 3d 13 5e 66 3c b7 45 18 3d
       0.048169903 0.090495676 0.014060515 0.03717586
000190 59 06 52 bb 80 02 c4 3a 85 83 bf bd 3a 95 07 3e
       -0.003204724 0.0014954358 -0.09351257 0.13240519
0001a0 91 2d 9c be b4 8a 5c bf bd b5 a8 3e 7b 7b 8a 3e
       -0.30503514 -0.86149144 0.32951155 0.27047333
0001b0 49 51 96 3d 92 a1 46 3d dc cc 82 bd 70 3a 15 be
       0.07339723 0.04849393 -0.0638673 -0.14573073
0001c0 fe 4f 90 3d 02 7b 44 3d f4 75 84 3d 66 15 e9 3c
       0.07046507 0.047968872 0.0646781 0.028452586
0001d0 a1 01 3a bd ad a4 ab bc 63 50 31 bd 93 4c 15 3e
       -0.04541171 -0.020952547 -0.043289553 0.14579992
0001e0 56 52 0f bf 88 b9 50 be c6 fc fc 3e 3c 88 09 3e
       -0.5598501 -0.20383275 0.494116 0.13430876
0001f0 c8 91 70 3d 2a 6f 1b 3d 65 17 ee bc 11 15 f1 bd
       0.058732778 0.03794781 -0.02906389 -0.11771596
000200 2d 86 d1 3d 65 b7 1c 3d a7 37 b0 3d 1b 82 0a bd
       0.1023067 0.038260836 0.08604365 -0.033815484
000210 5e a1 be 3d f4 ea 53 3d ce 19 b9 3b 4a bc 7a bd
       0.09308122 0.05173774 0.005648828 -0.061214723
000220 95 56 b7 be 66 3a 6f 3e 32 0f a8 3e 57 1e 5c 3c
       -0.35808244 0.23362121 0.32824093 0.013434968
000230 02 b4 8f bc c3 1b 54 bd fb d7 b9 bd d4 7e b8 bd
       -0.01754189 -0.05178429 -0.09074398 -0.090085655
000240 f4 cc 86 3d 7c fb 30 3d 10 86 01 bd 72 a3 12 b9
       0.065820605 0.043208584 -0.031621993 -0.00013984533
000250 46 bb ee 3c 3f ba 3a bd 43 32 2a bd c6 cc 6d be
       0.029142033 -0.045587774 -0.04155184 -0.23222646
000260 25 1b 91 bd 35 ad 84 3e 85 1f 1e 3e 02 6b aa 3c
       -0.070852555 0.25913396 0.15441711 0.020802978
000270 0a f3 9b 3d 6f 57 a8 bc 9c 8d a5 bb 8d 17 49 3d
       0.076147154 -0.020549504 -0.0050522815 0.049094725
000280 ef 35 52 3c 32 5e 4c bd 0e d2 8f 3d 1d 51 cd bc
       0.012830242 -0.04989452 0.070224866 -0.025063092
000290 78 ad 43 3d 96 30 f2 bd 35 68 1f be 02 82 0d be
       0.047772855 -0.11825673 -0.15567096 -0.13819125
0002a0 0d e1 13 3e e8 6e 40 3e 77 ce 51 3d d2 7f 59 3d
       0.14441319 0.18792307 0.05122229 0.053100415
0002b0 21 9a 21 bd 36 af 7d bd f4 65 38 bc 85 69 93 3c
       -0.03945363 -0.061934672 -0.011254776 0.017994652
0002c0 4f 4b 5a 3c f6 c6 5e 3b 1b 67 86 bd 8f ef 80 bc
       0.013323619 0.0033993102 -0.065626346 -0.01573923
0002d0 75 c5 94 bd e1 58 16 be 70 b7 db bc db c3 9d 3d
       -0.072642244 -0.14682342 -0.026820868 0.07703372
0002e0 ef 53 31 3d f7 4f 7f 3d 05 ba c7 bd 3d 06 d0 3a
       0.043292936 0.06233212 -0.09752277 0.0015871
0002f0 79 c1 c7 3d 5a e2 01 3e 07 db 9c 3d ec 9c 69 3d
       0.09753699 0.12684003 0.07658964 0.057034418
000300 0e ed f3 bb 8d 3d ae bd 3a 2d c2 bd 84 39 86 3b
       -0.0074440306 -0.08507834 -0.094812825 0.004096212
000310 b0 5d 0b 3d 6c 6e 87 3d ab f9 01 3e e0 84 e1 3d
       0.034024894 0.06612858 0.12692897 0.11011672
000320 2d a5 56 bd db 18 c1 bd 22 f0 11 be f8 9f f9 3b
       -0.052403618 -0.09428569 -0.1425176 0.0076179467
000330 5d 17 90 3d 10 8c 47 3e ac ac c3 3d 20 10 2d bc
       0.07035706 0.19487023 0.09554419 -0.0105629265
000340 7f e9 fd 3c 7c 7b 41 bb 1a e5 c4 bd a4 c5 e4 bc
       0.030995129 -0.0029523065 -0.0961401 -0.027926274
000350 d3 5f 03 bc 81 ec 52 3d f8 9c ac bc 9f f8 96 bc
       -0.008018452 0.05149508 -0.021070942 -0.018429099
000360 81 50 6b bd 0a 38 2e 3c b1 04 39 be da da 24 be
       -0.05744982 0.010633478 -0.18068196 -0.1609911
000370 bf 42 47 bd b7 b4 00 3e d5 11 c5 3d 85 da 9a 3d
       -0.04864764 0.12568937 0.09622542 0.075612105
000380 73 d5 a5 bc 29 3d d8 bc 19 93 81 ba 59 be b0 bd
       -0.020243382 -0.026396351 -0.0009885757 -0.08630056
000390 c5 bf 33 bc 2a b6 db 3a 30 72 67 3d 32 87 21 3e
       -0.010971014 0.0016762663 0.056505382 0.15774229
0003a0 05 60 03 bd 67 f6 91 3d 32 33 a0 bd cf 27 19 be
       -0.032073993 0.07127076 -0.07822265 -0.14956592
0003b0 32 61 f5 bd 13 a4 d4 3b e4 fe 69 bd fe c9 7b 3d
       -0.11981429 0.0064892857 -0.05712785 0.06147193
0003c0 2f 54 a6 3c 80 7f 59 3c 57 7d c4 bc 3d de 95 3d
       0.020303814 0.013275027 -0.023985548 0.07317779
0003d0 95 72 0d 3e 1d df d2 3d d5 f7 97 3d 40 24 13 3c
       0.13813241 0.10296462 0.07420317 0.008980811
0003e0 d2 1e 25 3d dd a3 3a bd d1 b9 1e bd 05 57 f6 bd
       0.040312596 -0.04556643 -0.038751427 -0.120283164
0003f0 53 9f 80 bd 9a fa 98 bd 61 47 2a 3d 02 1f 07 ba
       -0.06280389 -0.074696735 0.04157198 -0.0005154462

fc2.weight f4 [32, 64]
000000 4d 70 2e 3e 0c 2a 99 3d 6b 63 cb 3e 1e 99 43 3d
       0.17035027 0.07478723 0.39724287 0.047753446
000010 af af ab 3d 63 24 df bb 9f 40 c0 bd b5 87 1d 3e
       0.08383118 -0.0068097576 -0.093873255 0.153838
000020 a6 36 9a 3d 82 59 97 be a9 26 47 be 73 44 4a be
       0.075299546 -0.29560477 -0.19448341 -0.19752674
000030 d4 8a 43 bd c0 9f bb bd 60 97 d1 bd 18 1d 64 bd
       -0.04773982 -0.09161329 -0.102339506 -0.05569181
000040 04 5d 0b 3c cf 2d 3c bd f3 04 cc bd 34 eb 49 3d
       0.008506063 -0.045942124 -0.099618815 0.049296573
000050 37 03 e8 3e e6 e9 aa be ae f9 6f bc be b3 95 bd
       0.45314953 -0.33381575 -0.014646931 -0.07309674
000060 52 85 3e be e8 ea ca 3d ae c4 1c be bc 5d 11 bb
       -0.18605545 0.09908086 -0.15309402 -0.0022181114
000070 b3 b3 66 bf 51 08 f5 3b 93 31 8a bc 24 b2 46 3d
       -0.9011795 0.007477798 -0.016869342 0.048509732
000080 45 97 3c be 9f ce d0 bd f5 62 35 be b4 1a c7 3d
       -0.1841708 -0.1019566 -0.1771353 0.0972189
000090 8e 8d 20 be fa 9c 1b bd c5 f5 6c 3e e5 3a 15 be
       -0.15678999 -0.0379915 0.23140629 -0.14573248
0000a0 ea a5 c9 3d bd bb 91 bd bf 4d c7 3d bf f7 44 be
       0.09846099 -0.07115886 0.09731626 -0.19235133
0000b0 ce cf f9 3d 42 5f 8f be f9 08 77 be a2 83 cc bd
       0.12197839 -0.28002363 -0.24124517 -0.099860445
0000c0 3b 33 af 3d 1f 8e f9 3e 90 27 28 bb 60 20 7d be
       0.08554693 0.48741242 -0.0025658347 -0.24719381
0000d0 83 3c 3d 3a c3 75 c8 3e 25 d1 46 be 6a 7f a2 bd
       0.0007218795 0.39152345 -0.1941572 -0.079344586
0000e0 a8 0b 00 3c 9e b2 8e bf 00 c4 5c be 4b ae 02 39
       0.007815279 -1.114826 -0.21559143 0.00012462695
0000f0 7b 62 f1 be 5a 88 2e 3e 4e 15 98 3d 08 8d 89 be
       -0.47145447 0.17044201 0.074259385 -0.2686541
000100 84 59 95 3e ae 34 2e bf 30 e0 6b bc 1b 95 45 3e
       0.29169858 -0.6804913 -0.014396712 0.1929516
000110 a0 24 21 bf bd 5e d2 3d 75 10 f3 3d 9a 59 95 3e
       -0.6294651 0.10271976 0.11868373 0.29169923
000120 0d 21 ae 3e 2b 2a e8 3d 59 5f a9 3e 9e 47 d1 3d
       0.3400959 0.11336168 0.33080557 0.10218738
000130 71 14 ef bb b5 3a dd 36 d6 5a 95 3e 64 25 c7 3e
       -0.007296138 6.5931476e-06 0.29170865 0.38895714
000140 b8 34 0e 3e 57 18 1e 3e 2a 69 bd 3d 7c 00 54 3e
       0.13887298 0.15438972 0.09248574 0.2070331
000150 d7 bd 41 ba df 6d 1a be 1d 31 c7 be 6b d9 cd 3d
       -0.0007390654 -0.15080975 -0.38904658 0.10051235
000160 af 7d 0f 3e 65 f6 c8 3d 39 22 c7 bd 4a 21 c7 3d
       0.14012788 0.09812621 -0.09723324 0.09723146
000170 e1 66 d4 3e 6c c5 e9 b8 66 3a 90 be 37 99 c7 3d
       0.4148474 -0.000111470785 -0.28169554 0.0974602
000180 3a 5c ea 3c a5 2e 5d bd 0f 86 47 3e fd 65 92 be
       0.02860843 -0.05399956 0.19484733 -0.28593436
000190 26 6c 47 3e 2b 44 96 3e 06 05 aa bc 64 6c c7 3d
       0.19474849 0.29348883 -0.020754348 0.09737471
0001a0 77 2d c7 bd c6 5e 57 bf 7f aa 5f 3e fc e3 62 be
       -0.097254686 -0.8412899 0.21842383 -0.22157282
0001b0 b7 d3 59 3b 36 f3 c5 bd 00 92 95 3e f1 80 09 be
       0.0033237764 -0.096655294 0.29212952 -0.13428093
0001c0 64 04 eb 3e d2 0b 88 3d 8e bf 7c 3d 07 40 47 3e
       0.45901787 0.066428795 0.06170612 0.19458018
0001d0 2f b6 96 be d4 85 bb bb fc 1c c6 bd 4f 68 c6 3e
       -0.2943587 -0.0057227407 -0.09673497 0.38751456
0001e0 7a 88 a4 be e4 48 96 3e d4 14 a8 3e 56 78 be 3e
       -0.32135373 0.29352486 0.3282839 0.37201184
0001f0 90 b3 52 bf 96 14 32 be cd 75 1b 3e dd 23 47 3e
       -0.8230524 -0.17390665 0.15181656 0.19447275
000200 51 20 9b be 34 71 ae 3d a8 ca bc 3d 95 ad c7 bd
       -0.30298093 0.085176855 0.09218341 -0.09749905
000210 8b d0 47 3c 66 25 c7 3d 02 d9 1e bf 52 5b 95 3e
       0.012195717 0.0972393 -0.6204988 0.29171234
000220 cd f4 48 be c2 36 47 3e 95 7d 97 bc d4 61 c4 be
       -0.19624634 0.19454482 -0.0184925 -0.38355887
000230 c1 fe ae be a1 be c7 3d 9b d0 b5 be 75 1d 2f bf
       -0.34178737 0.097531565 -0.35510716 -0.6840432
000240 28 23 c7 bd e5 63 1e be a4 2a c3 be bd b5 54 bf
       -0.097235024 -0.15467794 -0.3811847 -0.8308981
000250 be b5 93 bb 0e 6a 46 3e 24 15 c7 3d ad 49 05 3e
       -0.0045077493 0.19376394 0.09720829 0.13016386
000260 c0 5f a0 be 58 e1 6c bd 5a ba c2 3e 2a 76 31 b7
       -0.3132305 -0.057832092 0.380328 -1.0577534e-05
000270 e5 76 c7 bc 92 b9 1e 3e 5f 63 95 3e e0 cb 19 3e
       -0.024348686 0.15500477 0.29177377 0.15019178
000280 1c ad ba bd 2b 59 95 3e 06 ea 45 3e 35 4c 5b 3c
       -0.09115049 0.29169592 0.19327554 0.013384868
000290 62 0c 47 3e eb fc 92 3d b6 1b c7 3d 3e 8a 35 3d
       0.19438317 0.071771465 0.09722082 0.04432129
0002a0 d9 8d 88 3e 9c 12 a7 3d 33 6e c6 bd ea dc 1f bf
       0.2667072 0.08157846 -0.096889876 -0.62446463
0002b0 ee 68 5a bd 6a 52 c0 3e ec d3 49 bf b9 30 96 bd
       -0.053322725 0.37562877 -0.7883899 -0.07333512
0002c0 b6 d6 c6 bd eb 02 c7 bd ae b5 13 3e 98 2c c7 bd
       -0.097089216 -0.097173534 0.14424774 -0.097253025
0002d0 7a 63 75 3c 23 2e c6 3e 67 9b eb be 56 88 b5 bd
       0.01497733 0.38707075 -0.46017 -0.08863895
0002e0 71 a1 b9 3d f0 b6 8a be f6 16 a9 3e 47 88 48 be
       0.09063996 -0.27092695 0.3302533 -0.19583236
0002f0 f3 f6 e3 bd e9 8b 8d 3e e8 36 20 be 95 84 ec be
       -0.11131086 0.27645805 -0.15645945 -0.46194902
000300 24 1c 83 3d 88 ff 67 be eb 0d 53 be c0 fb 36 3e
       0.06401852 -0.22656071 -0.20610778 0.17869473
000310 1f 0d 6d be 2e 5b 3d be b2 17 16 3f c0 6e 95 be
       -0.23149537 -0.18491814 0.58629906 -0.29186058
000320 61 29 47 3e 7b 31 8e be ec f5 ae 3e 4f 41 2a 3e
       0.19449379 -0.27772126 0.34171999 0.16626476
000330 4f 94 b8 be c0 52 48 3e 5c 59 95 3e 00 e3 4c be
       -0.3605065 0.19562817 0.29169738 -0.20008469
000340 67 27 c7 3d 34 30 42 be 2f 3b 15 3e c6 4a 75 3e
       0.09724312 -0.189637 0.14573358 0.23954305
000350 fb 3f 05 bf 20 5f aa bc a1 6a a6 3e db ba b6 bd
       -0.5205075 -0.020797312 0.32503226 -0.089223586
000360 9d 48 f3 be dc b6 54 3e df d4 30 3e d6 1b b4 3e
       -0.47516337 0.2077288 0.17268704 0.35177487
000370 40 71 aa bd 3d 1c 47 be 24 27 c7 bd 76 e7 c9 be
       -0.08322382 -0.19444366 -0.09724262 -0.39434403
000380 4e 61 bc be b1 97 b7 3c a5 05 00 3f 1f 7c c7 bd
       -0.36792988 0.0224112 0.5000861 -0.09740471
000390 b6 c5 e3 3e 79 d5 bf be 09 6e e8 be 77 23 c7 3d
       0.4448678 -0.37467554 -0.4539645 0.09723561
0003a0 dc 6f d2 bd b7 16 96 be 81 b2 c8 3d 77 3a 8d 3e
       -0.10275242 -0.29314205 0.09799672 0.27583668
0003b0 4b 4e 13 3d 39 d8 9e be 8c 56 ee 3e 4d 6a c7 be
       0.035963338 -0.3102434 0.46550405 -0.3894829
0003c0 33 1e c7 3d be fc 88 3e 15 c6 09 be f9 d9 9b be
       0.09722557 0.26755327 -0.13454469 -0.30439737
0003d0 23 f7 b6 b7 69 c0 be be 03 40 47 3e ee 20 47 3e
       -2.1811173e-05 -0.37256172 0.19458012 0.19446155
0003e0 7a 6b 1b bd 65 3e c5 be 4b c7 4f be 80 f9 e3 bd
       -0.037944295 -0.38524166 -0.20290868 -0.11131573
0003f0 71 de 32 3e 9a b9 8f b8 a3 28 c7 3d c3 9a 2e bf
       0.17467667 -6.853342e-05 0.09724548 -0.682049

fc3.weight f4 [16, 32]
000000 41 d5 b5 3d 96 5c 51 be 15 78 4a 3f 30 9f 23 be
       0.088785656 -0.20445475 0.7908948 -0.15978694
000010 98 ca 49 3c 6a 9b e8 3d 31 30 d2 be 33 95 80 b7
       0.0123163685 0.11357768 -0.41052392 -1.5328265e-05
000020 02 10 52 3e 68 4f 16 bf 0a 2c d9 3d bc 39 d1 3d
       0.20513919 -0.58714914 0.10604103 0.1021609
000030 dc 8e d0 3d 51 19 02 bd 28 14 53 be 92 c9 42 3e
       0.10183498 -0.031762425 -0.20613158 0.19022205
000040 d6 5f 51 3e 60 9d 48 3e ab 92 50 3e e2 15 c7 bd
       0.20446715 0.19591284 0.2036845 -0.09720971
000050 6b 91 fe 3c 90 16 fc bc 17 d3 23 38 e1 35 c9 3e
       0.0310752 -0.030772477 3.905882e-05 0.3929892
000060 97 00 10 be 55 2c f2 bb 5d 8e c8 be 29 02 04 bd
       -0.14062725 -0.0073905387 -0.39171115 -0.032228623
000070 b0 e7 9c be 39 41 bc 3e 58 69 51 be 70 6b d1 bd
       -0.30645514 0.3676851 -0.20450342 -0.1022557
000080 da 06 28 be bf 07 0e be ce a6 9d 3e f9 61 cc 3e
       -0.16408864 -0.13870142 0.30791324 0.39918497
000090 68 a6 95 be fb 78 02 3f 9b 11 9d 3e e1 6c a7 3e
       -0.2922852 0.5096585 0.30677494 0.32700256
0000a0 e8 17 9d 3e 65 22 14 ba 02 d4 9f be 1d 04 ea bb
       0.30682302 -0.0005650877 -0.31216437 -0.0071416036
0000b0 51 13 20 3e bb 41 51 be ac dc 02 bf 33 75 9d 3e
       0.15632369 -0.2043523 -0.5111797 0.30753478
0000c0 86 41 b0 bc fc 4a ca 3e de 6f a4 be ee 5f 47 3e
       -0.021515619 0.39510334 -0.32116598 0.19470188
0000d0 74 aa 95 3e 58 68 d9 bd 09 a2 62 be b2 61 51 3e
       0.29231608 -0.10615605 -0.22132124 0.20447424
0000e0 fe 91 70 3e 09 03 82 be a1 3c 0c be 19 6b 2c 3e
       0.23493192 -0.2539294 -0.13695003 0.1683773
0000f0 f0 ad 4c be e6 c6 43 ba a7 fa 7d bc 37 e8 9c 3e
       -0.19988227 -0.0007468298 -0.015501655 0.30645916
000100 53 da af be bf 11 4e 3e 9a 9f be bd d7 db 1c 3f
       -0.34346256 0.20123957 -0.09307785 0.6127295
000110 7c 06 69 be 3a 88 9b 3e ee 65 a4 3e ad 23 1b 3e
       -0.2275638 0.3037737 0.32109016 0.15150328
000120 76 a8 1e 3e cb 26 51 3e 66 2f d0 bd ad 6f 4f 3e
       0.1549395 0.20424955 -0.101652905 0.20257445
000130 90 f8 c3 be b2 7c 8e bd 13 2c 34 3c 83 06 9d be
       -0.38275576 -0.069573775 0.010996836 -0.3066903
000140 3d 78 dd 3e 8e 59 06 ba 34 28 8e 3e c8 18 b7 3e
       0.43255797 -0.0005125039 0.27765048 0.35761094
000150 bb 88 36 bf 64 ac 41 3e d5 b7 4f 3a f0 e6 90 3e
       -0.71302384 0.18913418 0.00079238164 0.2830119
000160 49 f0 86 be ef e6 c1 3d c5 e6 c9 3d 1e cf 51 be
       -0.26355198 0.09467875 0.09858469 -0.20489165
000170 fe a5 d1 3d eb 08 1d bf 0c f8 7f 3e a0 31 ce 3d
       0.102367386 -0.6134173 0.24996966 0.10068059
000180 e5 5c 51 3e a5 74 01 3f f0 f5 01 3c 77 90 92 be
       0.20445593 0.5056861 0.007932171 -0.28625843
000190 36 05 9d 3e a5 33 46 bc 79 58 8c 3e af fc 9c 3e
       0.30668038 -0.012097274 0.2741125 0.30661532
0001a0 c9 26 52 be b2 02 54 3e 42 2f af 3e 4f 06 d3 3d
       -0.20522608 0.20704153 0.34215742 0.10303938
0001b0 77 18 a1 be d0 86 90 3d cd 5d d1 bd 22 05 0b 3e
       -0.31463978 0.070569634 -0.10222969 0.13576177
0001c0 da c4 86 3c 2f a8 a9 3d 16 93 c2 be e5 5f d1 be
       0.016451288 0.082840316 -0.38002843 -0.40893474
0001d0 23 1a 43 be c2 13 d4 3e 12 da 02 3f 7c b9 07 bc
       -0.19052939 0.41421324 0.51114 -0.008283969
0001e0 c9 db ef b9 34 ef cb 3e 72 b2 b5 bd bf 20 ca 3d
       -0.00045749385 0.39830935 -0.08871926 0.09869527
0001f0 4d 11 d5 bd a1 c5 c0 3d 8c 08 9d be df 5f d1 bd
       -0.104036905 0.09412695 -0.30670583 -0.10223364
000200 ea 46 a5 be 8c 24 0d 3c 41 89 bc bb 07 76 dd 3c
       -0.32280666 0.0086146705 -0.0057536666 0.027033819
000210 55 f5 ff 3e 3c e1 38 bd 39 7a 27 bd a1 d2 03 3d
       0.4999186 -0.045136675 -0.040888045 0.032183293
000220 e0 82 cc bc 51 af 6f 3d 25 df 55 3a 4d 62 51 be
       -0.02496475 0.058516804 0.00081585563 -0.20447655
000230 de 72 d1 bd ee fc d5 3e d3 a4 a7 bd 69 0a ba bd
       -0.10226987 0.41794533 -0.081857346 -0.09084017
000240 70 c9 09 3f 03 6e d3 bd b3 5c d1 3d 47 7e f2 3d
       0.53822994 -0.103237174 0.10222759 0.11840492
000250 5a 7c 3f 3e fd 5d 07 be f2 be 05 bd eb 2a 5d bc
       0.1869978 -0.13219447 -0.032652803 -0.013499002
000260 6b 57 d1 3d ed a1 18 3f 75 1e 9d 3e ff f7 98 be
       0.10221752 0.5962208 0.306873 -0.29876706
000270 42 34 a8 b9 9b 46 8a 3e 6f ee 6c 3e a0 db 08 bd
       -0.00032082392 0.27006993 0.2313783 -0.033412576
000280 de 6d 50 3e 83 5e 51 be 72 d1 29 3e 21 1d b0 be
       0.20354411 -0.2044621 0.16583803 -0.34397224
000290 a8 4d b5 3e 04 60 d1 3d 98 98 3f 3e 72 25 dd bd
       0.3541081 0.10223392 0.18710554 -0.10798158
0002a0 f0 1e 9d be 5f c7 ef 3e 71 96 55 be 58 bc c4 3b
       -0.30687666 0.46831796 -0.2085817 0.0060038976
0002b0 88 05 9d 3e 86 79 d0 bd 86 fe 19 3d 04 c2 88 3e
       0.30668283 -0.10179429 0.037596248 0.26710522
0002c0 44 16 93 be be a4 9e be c9 8c aa 3e fe 71 51 be
       -0.28727925 -0.30985063 0.33310536 -0.20453641
0002d0 23 5c 0b 3e 16 a6 81 3e a9 aa 65 3e f1 be 45 3e
       0.13609366 0.25322026 0.22428383 0.1931112
0002e0 bf b3 a1 be 7d 29 fd b9 f6 d5 54 be ac ca 22 3f
       -0.31582448 -0.00048286832 -0.20784745 0.635905
0002f0 1e 76 9d be 43 69 25 be b8 87 d2 3e 7f dc 02 3f
       -0.3075418 -0.16153435 0.4111917 0.511177
000300 f1 5c 51 3e c9 db 9c be d5 b7 c4 3e eb c2 96 be
       0.2044561 -0.30636433 0.38421503 -0.29445586
000310 30 a7 f9 be 18 ff 02 bf 24 af f8 bc ad 4a 87 3e
       -0.48760366 -0.5117049 -0.030356951 0.2642416
000320 a7 63 0c 3b fc 3f 51 3e 20 f5 c2 3e 9b 6c 51 3e
       0.0021421702 0.20434564 0.3807764 0.20451586
000330 38 d5 4b be 91 ef c0 39 50 bb 9a 3e e8 0e d2 be
       -0.19905555 0.00036799585 0.30221033 -0.41026998
000340 47 f9 49 be dc ef 92 be 48 65 a9 3e 13 87 04 3f
       -0.19723998 -0.28698623 0.33085084 0.51768607
000350 cb fc d3 34 d5 86 47 be 13 87 86 be 23 51 f4 3d
       3.9485744e-07 -0.19485028 -0.26274928 0.11929538
000360 47 8c 6f 3e 3d 89 d7 be 4b 32 d1 3d 21 32 20 bd
       0.23393355 -0.42096892 0.10214671 -0.039110307
000370 0a 44 be 3e df 60 d1 3d 47 65 d1 3e 76 ac a0 3e
       0.37161285 0.10223555 0.4089758 0.31381577
000380 bf 79 83 3e e2 98 d0 3e c4 d9 4e be bf b2 25 3e
       0.25678822 0.4074164 -0.20200258 0.16181467
000390 89 d4 82 3e 3c 7f ed 3d cf b3 0a be 78 a5 a1 3e
       0.25552776 0.11596534 -0.13545154 0.31571555
0003a0 81 86 f0 be 29 f8 83 3e 15 8e d6 bd 19 d8 1d be
       -0.46977618 0.2577527 -0.10476319 -0.15414466
0003b0 93 19 99 be 22 7e 02 3f 67 69 98 be 46 46 17 3d
       -0.29902324 0.50973713 -0.29767916 0.036932252
0003c0 b8 f8 66 be 3e b5 bd 3e 77 09 3a be ce e2 67 3e
       -0.22555816 0.3705234 -0.18167673 0.22645113
0003d0 49 a5 63 3d fd 70 e3 bd a2 ba 3c be b1 07 5e be
       0.05557755 -0.11105535 -0.1843057 -0.21682622
0003e0 a6 ce 27 bf 49 b4 8d 3e 4b 24 ab be 2c 3f 47 be
       -0.65549695 0.2767661 -0.33426127 -0.19457692
0003f0 d9 c8 9c 3e 84 81 db bd fa 2e fe 3d df f5 6a be
       0.30621985 -0.107180625 0.12411304 -0.22945355

fcl.weight f4 [10, 16]
000000 d0 b5 3c 3d 28 f7 44 bf 47 b2 47 bf 2e e6 12 c0
       0.046071827 -0.7693963 -0.78006405 -2.295299
000010 a1 9a 62 bf 1f e6 8a 3f 30 20 96 3f b2 2d 9f be
       -0.88517195 1.0851477 1.1728573 -0.3108955
000020 da b9 50 bf 4d 12 8c bf 6a 46 98 3f 1e 7e c7 bf
       -0.81533587 -1.0943085 1.1896489 -1.5585363
000030 e5 66 a0 3d 2d 3f 96 bf 7d aa cb be 05 9b 6d bf
       0.078321256 -1.173803 -0.3977851 -0.92814666
000040 e9 75 a2 3f a1 20 8e bf 05 6f b4 bf 66 d9 95 3e
       1.2692233 -1.1103708 -1.409638 0.29267424
000050 6a 36 fa 3f 57 87 97 bf 0e 33 4f bf 28 1a c2 bf
       1.9547856 -1.1838177 -0.8093728 -1.5164232
000060 8f a4 96 bf 2c 1e 96 bf f0 c1 c4 be 17 e3 79 3e
       -1.1768969 -1.1727958 -0.38429213 0.24403034
000070 bc fb 3b be 75 b8 47 bf 70 7e a1 bd 0d d3 99 bf
       -0.18357748 -0.78015834 -0.07885444 -1.2017533
000080 cb 34 7e bf c2 49 71 bf 51 39 48 bf 31 41 a0 bf
       -0.99299306 -0.9425317 -0.7821246 -1.2519895
000090 89 2b 48 3f b9 02 c9 3e 75 2b 48 bf 55 f2 3e 3f
       0.7819143 0.3925989 -0.7819131 0.7458852
0000a0 5b 2b 48 bf 07 70 c8 bb 91 33 c8 be 70 20 96 bf
       -0.78191155 -0.0061168703 -0.39101842 -1.1728649
0000b0 5d d8 4f 3e 43 f0 c0 3f f5 03 14 be 8d a4 74 bf
       0.2029738 1.5073322 -0.14454634 -0.95563585
0000c0 33 7a 76 bf 07 6d e2 3e 9c 93 c5 bf d6 dd 49 bf
       -0.9628021 0.44223806 -1.5435672 -0.7885412
0000d0 40 a8 32 be 29 9f 28 bf 93 83 8d bd d3 66 c9 be
       -0.17446995 -0.6586786 -0.069098614 -0.3933626
0000e0 bb 37 63 bf 3d 7d c8 3f 1b 20 96 bf b4 a4 7d 3f
       -0.8875691 1.566322 -1.1728548 0.9907944
0000f0 f8 43 d6 3d 06 10 9b bd 26 a3 1b be 7d 4a 48 bf
       0.10462183 -0.075714156 -0.15198955 -0.7823866
000100 86 00 8e bf 98 2b 48 3f 87 15 e5 3f ed 42 0c b6
       -1.109391 0.7819152 1.7897195 -2.0900582e-06
000110 fe 3c b0 bd 1c 26 c8 be 06 db 5e bf 05 55 18 3a
       -0.08605383 -0.39091575 -0.87052953 0.0005811009
000120 1d 64 63 bf a9 b4 99 bf 5b ad 31 bf 13 78 3e bf
       -0.88824636 -1.2008258 -0.69405144 -0.7440197
000130 7b a2 6f be a2 92 96 bf d5 0d 3c bf 34 18 7f bf
       -0.23401825 -1.1763499 -0.73458606 -0.99646306
000140 21 8f 31 bf 63 d3 b8 bf 12 eb d2 be 2f 10 e4 be
       -0.6935902 -1.443951 -0.4119497 -0.44543597
000150 6a 70 c8 be bd 3c 84 bf 27 23 72 3f 5f 17 71 3e
       -0.39148265 -1.0331036 0.9458489 0.23544072
000160 6f 2e a9 3f c7 2b 48 bf 6d e3 45 bf d5 a1 ae 3f
       1.3217295 -0.781918 -0.7730015 1.3643137
000170 59 e6 1c bd 9a 27 61 bf fb f9 19 be 12 4d 10 bf
       -0.038305614 -0.8795105 -0.15036766 -0.563676
000180 e0 d7 ad be 46 6e c6 bf 24 1d c8 3e f2 3f 95 bf
       -0.33953762 -1.5502403 0.39084733 -1.166014
000190 04 4a d7 bd cc 7f d6 be 85 82 48 3f 88 b4 04 bf
       -0.10512164 -0.41894376 0.78324157 -0.5183797
0001a0 78 5f 03 36 00 8a 61 bf d6 e4 88 bf ff bf ca bf
       1.9576091e-06 -0.88101196 -1.0694835 -1.5839843
0001b0 b3 70 b6 3d 5d d6 98 bf 58 b5 7a bf 6e 36 fa 3f
       0.089082144 -1.1940418 -0.9793296 1.9547861
0001c0 01 07 94 bf 47 14 84 bf 87 30 c8 be c5 20 96 3f
       -1.1564637 -1.0318688 -0.39099523 1.172875
0001d0 8c a6 cc be f1 d4 7f bf a8 96 d6 bf 90 dc 35 3f
       -0.39970815 -0.999343 -1.6764727 0.71039677
0001e0 ce 2a 48 bf 1c 2c 48 3f 68 4c b3 3f af 29 87 bf
       -0.78190315 0.78192306 1.4007692 -1.0559596
0001f0 23 3a 9a bc 4b 1b 77 b8 5d 4f 3f 3e 2c 49 ef bf
       -0.01882655 -5.8914808e-05 0.18682618 -1.8694205
000200 6f 75 2f 3f e3 36 92 3f d9 0c 95 bf 60 2b c8 be
       0.68538564 1.1423 -1.1644546 -0.39095592
000210 72 9a 55 bf d9 ac 2f bf 3a 2b c8 be c5 57 2f bf
       -0.8343879 -0.6862312 -0.3909548 -0.684933
000220 88 20 96 3f 7e 2b c8 be 57 2b 48 bf 05 1d 9d bf
       1.1728678 -0.39095682 -0.7819113 -1.2274481
000230 68 01 8c 3d ba 2b c8 3e e6 32 ed bd a9 55 11 be
       0.06836206 0.3909586 -0.11581974 -0.14192833
000240 64 20 96 bf 89 2b c8 3e bb 2c c8 be 63 fd 8b 3f
       -1.1728635 0.39095715 -0.39096627 1.0936702
000250 59 5a a4 bf 55 d6 bc 3f 7b 67 9f bf 47 01 25 3c
       -1.2840072 1.4752909 -1.2453455 0.010071105
000260 c0 82 28 bf fe e9 53 bf 14 58 8e bf 26 c6 1b 3f
       -0.6582451 -0.8277892 -1.1120629 0.60849226
000270 79 7a 7d be e4 8f c8 bf e2 1e 53 be 76 a2 44 bf
       -0.24753751 -1.5668912 -0.2061725 -0.76810396
