BitNetMCU/modeldata/opt_Cosine_lr0.001_Aug_BitMnist_PerTensor_4bitsym_RMS_width32_16_16_bs128_epochs60.pth (torch, 39720 bytes, 4 tensors)

fc1.weight f4 [32, 256]
-0.003004948 0.0036759165 0.040056493 0.11448298 0.10858346 0.09688426 -0.0024202287 -0.233197
-0.25749743 -0.2298879 0.0067997696 0.0735097 0.1087382 0.0131860925 0.03839793 0.049993727
-0.034367565 0.0578039 0.043145984 0.21278651 0.24758565 0.18012139 -0.2396284 -0.7774503
-0.6750236 -0.0007968023 0.27959028 0.14982462 0.040477116 0.070350565 -0.030431908 -0.051017437
0.09364864 0.11616482 0.20153022 0.3473655 0.3261177 -0.0945912 -1.2569606 -2.0128322
-0.63293165 0.34735045 0.21357399 -0.02665994 -0.0010873411 0.039464224 -0.012249134 -0.031022258
-0.024324417 0.07286307 0.22770002 0.38315096 0.33657354 -0.21270204 -2.6948838 -2.9928272
-0.034485497 0.37112433 0.16993773 -0.00704747 -0.051752616 -0.061238978 -0.054094553 -0.06207758
0.025957465 0.1250196 0.28968608 0.25816536 0.29069257 -0.053374395 -2.770263 -1.6456395
0.23130742 0.3841821 0.14807148 0.05845041 -0.14470777 -0.12210076 -0.113702334 -0.06600824
0.021839857 -0.006011033 0.093579076 0.13342594 0.34026346 0.31264436 -0.75615805 -0.28191555
0.24113698 0.26881492 0.056937587 -0.12262541 -0.15494213 -0.0670186 -0.15869989 -0.07018435
-0.0003488534 -0.017399581 0.009304675 -0.025828198 0.015333749 0.28375077 -0.11200703 -0.10285621
0.1564335 0.07990648 -0.05665656 -0.13054396 -0.051485207 0.019329285 -0.07284698 0.0045851986
-0.0420363 -0.09564355 -0.08410901 0.0027772316 -0.044662666 0.03386949 -0.08853563 0.05679197
-0.05677601 0.04403564 -0.0043192613 0.023803808 0.075140126 0.059353877 0.08557174 -0.025301939
-0.026808197 -0.09431321 -0.05919895 -0.00030447857 0.1090089 4.7851965e-05 0.058277685 -0.050650813
-0.06915533 0.01610878 -0.0015159303 -0.03247405 -0.0066940263 0.00014357895 -0.035867758 -0.008730168
-0.01597611 -0.016938187 0.09727879 0.06651493 0.11320506 -0.02628714 -0.019464824 -7.335666e-05
-0.05475425 0.00038461987 -0.05506463 0.03505109 0.06780546 0.09738765 -0.013115996 0.059106946
0.008941409 0.050906144 0.09630962 0.090942554 -0.05666418 0.051323984 -0.020665534 -0.056325976
-0.114622936 -0.008491036 -0.057024185 -7.903964e-06 -0.09311028 -0.02878978 -0.028354852 0.012167716
0.029003324 -0.022650616 0.041928153 0.038663495 -0.05465463 -0.059915137 -0.020666307 -0.03793683
-0.055312466 0.0008718521 0.002393387 -0.03111559 -0.09573847 4.3928878e-05 -0.017959893 -0.037295107
-0.016963683 -0.056483727 -0.07864087 0.0002999185 -0.0051271957 0.02359415 -0.028873255 -0.06768807
0.0551485 0.026491899 7.701933e-05 -0.011915019 0.12634088 0.059867118 -0.028932348 -0.05005987
-0.06626151 -0.043942194 -0.047590844 -0.05013701 -0.010327184 -0.0060821283 -0.019087657 -0.054418165
0.008203051 -0.11336381 0.007041264 0.075746246 0.07613651 6.505914e-05 0.009640893 0.027882248
-0.05694875 -0.0010778358 -0.015698744 -0.03425535 0.0056507275 0.05668864 -0.027188515 0.001541985
-0.00025099184 0.057833437 -4.9235383e-05 -0.048271295 0.0043426543 -0.00021957108 -0.027538473 -0.032053746
0.027514063 0.0011299219 -0.011622238 -0.00010261006 -0.03495402 -0.024837755 0.05982608 -0.00027024685
0.0015803176 -0.012412838 -0.0048966566 -0.038551606 -0.06581163 -0.03610997 -0.009701247 0.00087245466
00000000: a9ee 44bb a5e7 703b 4712 243d 0d76 ea3d
00000010: 0161 de3d 416b c63d b39c 1ebb 32cb 6ebe
00000020: b4d6 83be bc67 6bbe 9ad0 de3b 418c 963d
00000030: 22b2 de3d 7b0a 583c 2647 1d3d 39c6 4c3d
00000040: 01c5 0cbd c8c3 6c3d d8b9 303d b5e4 593e
00000050: 1887 7d3e be71 383e 2661 75be fc06 47bf
00000060: 59ce 2cbf 7fe0 50ba 7526 8f3e a06b 193e
00000070: 55cb 253d f513 903d 564c f9bc a9f7 50bd
00000080: dcca bf3d d2e7 ed3d f05d 4e3e e4d9 b13e
00000090: e6f8 a63e 08b9 c1bd 16e4 a0bf 3ed2 00c0
000000a0: cf07 22bf ebd7 b13e 24b3 5a3e f265 dabc
000000b0: 1d85 8eba 3da5 213d 97b0 48bc 6422 febc
000000c0: 0044 c7bc 3c39 953d 322a 693e 5d2c c43e
000000d0: 5e53 ac3e 90ce 59be fa78 2cc0 7b8a 3fc0
000000e0: aa40 0dbd 0204 be3e 2804 2e3e 77ee e6bb
000000f0: 8dfa 53bd b9d5 7abd 4092 5dbd 0f45 7ebd
00000100: c0a4 d43c 2305 003e bc51 943e 402e 843e
00000110: a8d5 943e 1c9f 5abd fd4b 31c0 51a4 d2bf
00000120: dadb 6c3e 84b3 c43e 0da0 173e b269 6f3d
00000130: 462e 14be f70f fabd c5dc e8bd 542f 87bd
00000140: 80e9 b23c 33f8 c4bb 63a6 bf3d cfa0 083e
00000150: 0337 ae3e ec12 a03e 9393 41bf 3c57 90be
00000160: 9dec 763e 1ca2 893e 6337 693d 0823 fbbd
00000170: 26a9 1ebe 0c41 89bd 3982 22be d0bc 8fbd
00000180: 50e6 b6b9 9189 8ebc a372 183c a895 d3bc
00000190: 683a 7b3c c847 913e f163 e5bd 47a6 d2bd
000001a0: 1a30 203e 02a6 a33d b610 68bd 51ad 05be
000001b0: 27e2 52bd 7358 9e3c cc30 95bd 6f3f 963b
000001c0: 412e 2cbd c4e0 c3bd 5841 acbd 3702 363b
000001d0: 33f0 36bd bcba 0a3d 2b52 b5bd b29e 683d
000001e0: f68d 68bd b75e 343d 9788 8dbb 3400 c33c
000001f0: 11e3 993d 0d1d 733d 3d40 af3d 0346 cfbc
00000200: dd9c dbbc 4927 c1bd 997a 72bd 6ca2 9fb9
00000210: 0f40 df3d a8b4 4838 95b4 6e3d 3a77 4fbd
00000220: 4fa1 8dbd 8ff6 833c 2eb2 c6ba 8203 05bd
00000230: 9059 dbbb ae8d 1639 12ea 12bd fb08 0fbc
00000240: 55e0 82bc f4c1 8abc 1a3a c73d fb38 883d
00000250: 0ed8 e73d 2158 d7bc b274 9fbc 0fd7 99b8
00000260: fe45 60bd cea6 c939 738b 61bd bb91 0f3d
00000270: 97dd 8a3d 2d73 c73d 79e4 56bc 201a 723d
00000280: fd7e 123c f682 503d fa3d c53d 1740 ba3d
00000290: b318 68bd 1939 523d c44a a9bc 11b6 66bd
000002a0: 6ebf eabd fc1d 0bbc 3192 69bd 449b 04b7
000002b0: 9ab0 bebd 8bd8 ebbc 6f48 e8bc 1a5b 473c
000002c0: 6198 ed3c c98d b9bc dbbc 2b3d 9d5d 1e3d
000002d0: 89dd 5fbd 9369 75bd 634c a9bc a663 1bbd
000002e0: 538f 62bd 018d 643a 5fda 1c3b 1fe6 febc
000002f0: 8812 c4bd 4640 3838 a020 93bc c1c2 18bd
00000300: 6cf7 8abc 7b5b 67bd 770e a1bd 613e 9d39
00000310: 0902 a8bb 8548 c13c 9b87 ecbc 0ba0 8abd
00000320: 65e3 613d 8a05 d93c 7085 a138 3637 43bc
00000330: 815f 013e 3937 753d 8803 edbc 940b 4dbd
00000340: 1db4 87bd bbfc 33bd 9eee 42bd 775c 4dbd
00000350: 5933 29bc 974c c7bb b85d 9cbc 95e5 5ebd
00000360: 1766 063c 492b e8bd 67ba e63b d920 9b3d
00000370: 75ed 9b3d 5c70 8838 d6f4 1d3c 5069 e43c
00000380: 1843 69bd 2b46 8dba a79a 80bc 564f 0cbd
00000390: bd29 b93b 5932 683d 73ba debc 6e1c ca3a
000003a0: 8e97 83b9 c1e2 6c3d 1782 4eb8 1fb8 45bd
000003b0: d34c 8e3b aa3c 66b9 5d98 e1bc ca4a 03bd
000003c0: 2c65 e13c e319 943a 336b 3ebc 5b30 d7b8
000003d0: f22b 0fbd 8c78 cbbc 310c 753d ebaf 8db9
000003e0: a922 cf3a 375f 4bbc 2274 a0bb 4ae8 1dbd
000003f0: 3fc8 86bd 0ce8 13bd fbf1 1ebc 71b5 643a

fc2.weight f4 [16, 32]
-2.1604596e-06 0.43156946 0.44088587 0.8467706 -0.1705649 0.27384648 0.34404007 -0.2711528
-0.8526196 0.6764643 0.17048743 0.6054513 0.34173912 -0.3409834 -1.4110074 -0.17046338
-0.1763608 -0.00064576045 -0.554359 -0.3478235 6.683874e-08 -0.83167243 -0.85309553 0.08136505
-4.3279356e-06 0.85245484 -0.5165876 -0.6823651 0.17335416 -0.34112442 0.52185297 -0.34011653
-0.00029054796 0.019427605 0.17049062 0.046235684 0.17048408 1.6336682e-05 -0.1704882 -0.17140989
-0.10428442 0.3369398 -1.2779133 -0.17412579 0.8572227 0.16761144 0.017489117 0.39422727
0.050953742 -0.8524372 -0.17500304 -0.68414676 0.04889603 -0.51142156 -0.5104576 0.17048235
-0.15735978 0.32854274 -0.1704882 -0.16630211 0.16113907 -0.033371735 3.54636e-06 0.34096617
0.5963861 -0.5075202 0.007205334 0.33889943 -0.05992865 -0.4288243 0.32998827 -1.0309112
-1.31141 0.21707648 0.17048861 0.36489475 0.17035188 -0.17060278 -0.27393353 0.3428895
0.55352116 0.3312618 0.85244226 1.318313e-05 0.17048496 0.35099086 -1.8941322e-05 0.1886894
0.5057054 0.5948373 -0.69502693 -0.17018142 -0.05990231 -0.08210232 -0.17046869 0.6188984
0.75627947 -0.51149607 0.34097186 -0.49374107 -0.33904752 -0.554993 0.3437817 0.39680943
0.17005706 0.36075583 4.503556e-05 -0.5120302 0.041554973 -0.43507385 -0.1691601 0.6659119
0.1455935 0.13341638 -1.2662697e-05 -1.1561004 -0.1704019 -0.17049658 -0.9506807 0.4741703
0.6820203 -0.9006178 -0.17048472 2.3594583e-05 0.34108838 -0.2030242 -0.5331855 0.34097058
0.34948462 -1.0280023 -0.6688998 0.00057245884 -0.34348297 -0.5301406 0.17049377 0.6819547
1.0243098 0.34078154 0.20266224 0.17058952 -0.067189395 0.17090967 -0.31446952 0.102465056
-0.23599553 -0.17048432 -0.023269 -0.341003 -0.083849445 0.18268858 -0.34096935 6.1876153e-07
0.34141713 0.5533196 0.8249231 0.5114648 0.32574734 0.17048897 -0.59472454 2.0607893e-06
0.13004258 -0.17056488 0.17068739 -0.34732756 0.29952127 -0.071873136 -0.68202645 0.17049138
-0.7036342 -0.10152462 -0.7781362 -0.34375882 0.3409784 0.41212094 0.530466 0.25362146
0.20808841 0.1661765 -0.8505669 -0.52180946 0.614581 -0.5258994 -0.6819614 0.5133335
0.025904298 -0.34098858 -0.5056865 0.3310558 -0.3409951 0.51146597 -0.16141917 -0.353869
-0.40996796 0.50993043 0.51146567 0.24333161 0.26735908 0.34108776 -0.51146483 0.17079706
0.104230605 -0.34623718 -0.6094743 0.3409871 0.318888 -0.26815426 0.4368419 0.086691774
0.18560235 -0.781142 0.33287558 1.0106002 0.1433745 0.19023085 0.8522495 0.1704894
-0.5009306 0.17048822 0.3045781 -0.5114667 -0.34250468 -0.0038477948 0.34097847 -0.17031257
-0.5115862 0.50489885 -0.34526813 -0.1704887 -4.074175e-05 0.48036495 0.17494245 0.1829199
0.00025601828 -0.021663949 0.681538 0.08278528 -0.30691773 -0.5107765 -0.34098563 0.5114664
-0.20395617 1.130279 0.17048754 0.21962352 -0.245387 0.34213465 0.1704815 -0.17049019
-0.58120286 -0.17043743 -0.17048839 0.17049243 0.21620461 0.17048801 0.41297 0.9880921
00000000: 6afc 10b6 acf6 dc3e cbbb e13e f5c5 583f
00000010: 91a8 2ebe 9b35 8c3e 0526 b03e 8ad4 8abe
00000020: 4745 5abf c42c 2d3f 4294 2e3e dbfe 1a3f
00000030: 6ef8 ae3e 6095 aebe e49b b4bf f48d 2ebe
00000040: ed97 34be 4048 29ba 79ea 0dbf ec15 b2be
00000050: fc88 8f33 7ce8 54bf 7864 5abf b8a2 a63d
00000060: af38 91b6 7b3a 5a3f 163f 04bf 7baf 2ebf
00000070: c183 313e dca7 aebe 2898 053f c123 aebe
00000080: b054 98b9 a426 9f3c 1895 2e3e a161 3d3d
00000090: 6193 2e3e c20a 8937 7594 2ebe 1386 2fbe
000000a0: 1293 d5bd 6083 ac3e aa92 a3bf 084e 32be
000000b0: f272 5b3f 55a2 2b3e 5645 8f3c 28d8 c93e
000000c0: dfb4 503d 5339 5abf ff33 33be 3e24 2fbf
000000d0: 3447 483d 86ec 02bf 59ad 02bf ed92 2e3e
000000e0: ec22 21be c136 a83e 7594 2ebe 1a4b 2abe
000000f0: a401 253e cdb0 08bd 00fe 6d36 1e93 ae3e
00000100: c2ac 183f d8ec 01bf b91a ec3b 3a84 ad3e
00000110: be77 75bd dc8e dbbe 39f4 a83e e6f4 83bf
00000120: 48dc a7bf 4c49 5e3e 9194 2e3e 7cd3 ba3e
00000130: b970 2e3e 7fb2 2ebe 0441 8cbe 368f af3e
00000140: 90b3 0d3f 269b a93e a839 5a3f 1d2d 5d37
00000150: 9c93 2e3e 13b5 b33e 2ee4 9eb7 cb37 413e
00000160: e975 013f 4247 183f 49ed 31bf 0a44 2ebe
00000170: 205c 75bd 4325 a8bd 588f 2ebe 2070 1e3f
00000180: 889b 413f 68f1 02bf dd93 ae3e a1cb fcbe
00000190: a397 adbe 0514 0ebf 2804 b03e 9b2a cb3e
000001a0: 7023 2e3e fdb4 b83e 90e4 3c38 6914 03bf
000001b0: 8c35 2a3d 00c2 debe 4e38 2dbe 3479 2a3f
000001c0: 7616 153e 4e9e 083e df71 54b7 19fb 93bf
000001d0: d67d 2ebe a896 2ebe cf5f 73bf 73c6 f23e
000001e0: e298 2e3f e38e 66bf 8c93 2ebe fbec c537
000001f0: 23a3 ae3e 93e5 4fbe d87e 08bf b293 ae3e
00000200: a6ef b23e 9495 83bf 043d 2bbf 1011 163a
00000210: 00dd afbe 4bb7 07bf eb95 2e3e 9594 2e3f
00000220: 951c 833f eb7a ae3e b186 4f3e 05af 2e3e
00000230: 989a 89bd f202 2f3e 2602 a1be 33d9 d13d
00000240: d0a8 71be 7193 2ebe a19e bebc f297 aebe
00000250: 42b9 abbd b712 3b3e 8993 aebe f818 2635
00000260: 3ace ae3e 5aa6 0d3f 292e 533f 5bef 023f
00000270: 5bc8 a63e a994 2e3e de3f 18bf 174c 0a36
00000280: e229 053e 8fa8 2ebe adc8 2e3e ebd4 b1be
00000290: da5a 993e 3932 93bd 4999 2ebf 4b95 2e3e
000002a0: 5f21 34bf 24ec cfbd ef33 47bf 2801 b0be
000002b0: b994 ae3e 8401 d33e 9fcc 073f acda 813e
000002c0: 2115 553e 2c2a 2a3e c1be 59bf 4e95 05bf
000002d0: 2e55 1d3f 58a1 06bf 0695 2ebf d369 033f
000002e0: 4035 d43c 0e96 aebe ac74 01bf 2580 a93e
000002f0: e996 aebe 6fef 023f 114b 25be 512e b5be
00000300: 52e7 d1be cd8a 023f 6aef 023f ec2b 793e
00000310: 4ae3 883e 0ea3 ae3e 5cef 02bf 6de5 2e3e
00000320: db76 d53d 0046 b1be 8206 1cbf dc95 ae3e
00000330: 4a45 a33e 844b 89be bea9 df3e 758b b13d
00000340: 8b0e 3e3e ecf8 47bf ab6e aa3e 595b 813f
00000350: c4d0 123e e0cb 423e 062d 5a3f c694 2e3e
00000360: fd3c 00bf 7794 2e3e a9f1 9b3e 7bef 02bf
00000370: c65c afbe 492b 7cbb bb94 ae3e 6b66 2ebe
00000380: 50f7 02bf 0d41 013f fcc6 b0be 9794 2ebe
00000390: 1fe2 2ab8 65f2 f53e 1d24 333e 5b4f 3b3e
000003a0: 313a 8639 9878 b1bc 4679 2e3f 548b a93d
000003b0: 5224 9dbe 40c2 02bf ab95 aebe 76ef 023f
000003c0: e3d9 50be fbac 903f 4994 2e3e fde4 603e
000003d0: bb46 7bbe 462c af3e b492 2e3e fb94 2ebe
000003e0: b6c9 14bf 2687 2ebe 8294 2ebe 9195 2e3e
000003f0: be64 5d3e 6994 2e3e ce70 d33e 9bf3 7c3f

fc3.weight f4 [16, 16]
-0.44170454 0.12830412 0.30933076 0.8836777 0.15888815 0.28711522 -0.4417561 0.14297904
-0.14728032 0.28535217 0.14517908 0.26598704 -0.00875164 0.44185734 -0.009099034 0.32372633
-0.2945617 -0.0017591027 0.25720912 -0.00027412284 -0.14727755 0.14727576 0.29455596 0.49330008
0.5215944 -0.35430935 9.263473e-05 0.18486796 -0.39407334 -0.2955348 -0.44181067 -0.29017544
-0.053970013 -0.051582217 0.10824553 -0.33400667 0.693112 -0.5069712 -0.2751756 0.36606517
-0.569785 -0.08232274 0.40321198 -0.29582694 0.12110378 0.44236982 -0.14700438 0.149853
0.5837934 0.29192048 0.10717974 0.12950547 0.002199767 0.7368459 -0.295511 0.028013611
0.14726216 -0.14759172 -3.689447e-06 0.31066453 0.3064975 0.17543049 -0.0010749272 -0.29455352
0.14779195 0.32625985 0.34446824 0.108531624 -0.7401568 0.29360884 -0.14647688 0.3256657
-0.5936574 -0.20345902 0.0020118938 -0.36292458 0.1472703 -0.29504955 -0.46904087 0.01176144
-0.44218293 -0.2936385 -0.107110485 0.28061533 -0.14848445 0.2985728 0.5893236 0.7363872
-0.3073069 -0.00016023769 -0.58911276 0.5891516 0.13775142 -0.1472785 -0.28684968 -0.1457738
0.69170505 -0.6181186 -7.422956e-07 -0.22380574 -0.23775321 -0.5664878 0.4597087 -0.14732987
-0.20096096 -0.29443276 0.23662911 0.040047858 -0.122416005 0.18221001 0.14733104 0.4242766
0.63560987 -0.5858431 -0.25052926 0.44177163 0.38631913 0.016622178 -0.5873252 0.29455656
-0.48415276 0.35626152 -0.09201911 -0.34701785 0.37736133 -0.74582 0.13728136 0.60412246
0.4299319 -0.3159555 0.5890834 -0.72374505 -0.54736733 0.0048322133 -0.14727898 0.6410976
0.12351679 0.7379342 -7.298046e-07 -0.14438906 -0.12350949 0.1277168 0.29265383 0.66674435
-0.7393043 -0.25856662 -0.30551156 0.19199006 0.40713066 -0.24719393 -0.24311596 -4.9365934e-07
0.04408347 0.73030907 -0.10108308 -0.15628698 0.2945523 -0.14784713 0.7469491 0.009095769
0.3193753 0.14727491 0.08926189 -0.14781146 -0.0517917 -0.7345834 0.48240006 -0.44149962
-0.13715786 0.32578936 -0.4418335 0.5060139 -0.36846098 0.36800283 0.15052454 0.6349147
0.43432152 0.29453743 -0.29568526 -0.7184966 -0.25565106 0.14727618 3.9447077e-06 -0.31314442
0.13491145 -0.4295549 -0.0074289413 -0.58853656 0.6310574 0.13940647 0.040582243 -0.19382046
2.3781915e-07 0.7949418 0.5897398 0.14406727 0.010963104 -0.03281818 0.20762491 -0.29605883
0.5455149 0.14690302 -0.4418709 -0.002943737 -9.315393e-06 0.5840878 0.00026546838 0.07051421
0.2884728 0.7366297 -0.29153538 -0.591958 0.14873813 -0.265234 0.5671559 0.57005215
0.10198568 -0.16838391 -7.243029e-05 -8.810809e-06 0.37068778 0.7363875 -0.5605333 -0.14765285
0.29995883 -0.14730087 0.58911186 -0.58840245 0.67203164 -0.05433686 -0.058804855 0.085915655
0.16596015 5.7890206e-06 -0.14727744 0.57168543 -0.14727814 -0.16125941 0.6543293 -0.38062394
-0.24419999 0.14658757 -0.5668319 -0.008773847 -0.14728287 -0.43550888 0.030002268 0.15104014
0.5891097 0.15265007 0.5891109 0.15445347 0.14873621 4.470641e-07 0.1472703 -0.29457015
00000000: 1927 e2be 2862 033e 9a60 9e3e b438 623f
00000010: 93b3 223e c400 933e db2d e2be 1969 123e
00000020: a7d0 16be ae19 923e d3a9 143e 742f 883e
00000030: 0a63 0fbc 203b e23e 1d14 15bc 75bf a53e
00000040: cbd0 96be b191 e6ba eab0 833e 25b8 8fb9
00000050: edcf 16be 75cf 163e 0ad0 963e d491 fc3e
00000060: 3687 053f 0968 b5be e444 c238 074e 3d3e
00000070: fbc3 c9be 5650 97be 0235 e2be e091 94be
00000080: a90f 5dbd e047 53bd d5af dd3d ec02 abbe
00000090: ca6f 313f ddc8 01bf d1e3 8cbe e56c bb3e
000000a0: 6edd 11bf d398 a8bd cd71 ce3e a176 97be
000000b0: 4205 f83d 4c7e e23e 5188 16be 1173 193e
000000c0: 7c73 153f 9a76 953e 0d81 db3d 159d 043e
000000d0: f729 103b efa1 3c3f 384d 97be cd7c e53c
000000e0: e4cb 163e 4922 17be 3898 77b6 6c0f 9f3e
000000f0: 3eed 9c3e 0da4 333e 92e4 8cba b8cf 96be
00000100: c656 173e 880b a73e 245e b03e d445 de3d
00000110: eb7a 3dbf e653 963e 09fe 15be a8bd a63e
00000120: eef9 17bf 9057 50be fad9 033b 40d1 b9be
00000130: 07ce 163e bc10 97be 2026 f0be 0eb3 403c
00000140: cd65 e2be c957 96be be5c dbbd d0ac 8f3e
00000150: 4f0c 18be 89de 983e e9dd 163f df83 3c3f
00000160: 5457 9dbe 7a05 28b9 18d0 16bf a4d2 163f
00000170: b50e 0d3e 2dd0 16be f6dd 92be ba45 15be
00000180: 9513 313f 053d 1ebf 2a42 47b5 552d 65be
00000190: 9475 73be 5805 11bf f05e eb3e a4dd 16be
000001a0: b6c8 4dbe e4bf 96be e74e 723e 3909 243d
000001b0: 3eb5 fabd 4395 3a3e f3dd 163e c83a d93e
000001c0: 54b7 223f d0f9 15bf 5f45 80be e42f e23e
000001d0: 9fcb c53e 3c2b 883c f25a 16bf 1ed0 963e
000001e0: dfe2 f7be e967 b63e 8474 bcbd 53ac b1be
000001f0: 8135 c13e 0fee 3ebf 7c93 0c3e c5a7 1a3f
00000200: 0920 dc3e ebc4 a1be 2bce 163f 5b47 39bf
00000210: 4420 0cbf 8b57 9e3b 4dd0 16be f91e 243f
00000220: 5ff6 fc3d 41e9 3c3f cae7 43b5 bada 13be
00000230: 8bf2 fcbd 31c8 023e b9d6 953e c2af 2a3f
00000240: 0c43 3dbf d862 84be 036c 9cbe 0b99 443e
00000250: 6e73 d03e 6820 7dbe 64f3 78be 0384 04b5
00000260: de90 343d 89f5 3a3f a504 cfbd b209 20be
00000270: 8fcf 963e 3d65 17be 0e38 3f3f 6c06 153c
00000280: 2985 a33e 3ccf 163e f0ce b63d e35b 17be
00000290: 8923 54bd a80d 3cbf 24fd f63e 3d0c e2be
000002a0: 1c73 0cbe ddcd a63e 0038 e2be 208a 013f
000002b0: eba6 bcbe de6a bc3e 1b23 1a3e c589 223f
000002c0: 645f de3e 9ccd 963e 0f64 97be 65ef 37bf
000002d0: b2e4 82be 91cf 163e c85c 8436 7754 a0be
000002e0: 3a26 0a3e 9fee dbbe 7a6e f3bb 55aa 16bf
000002f0: fa8c 213f 92c0 0e3e 9139 263d df78 46be
00000300: 3b5b 7f34 4e81 4b3f 30f9 163f 5f86 133e
00000310: 979e 333c 5b6c 06bd a09b 543e 0695 97be
00000320: dda6 0b3f bf6d 163e e73c e2be b6eb 40bb
00000330: 4f49 1cb7 c786 153f 902e 8b39 c169 903d
00000340: b5b2 933e c493 3c3f 2044 95be 8f8a 17bf
00000350: cf4e 183e c0cc 87be 2131 113f f0ee 113f
00000360: dedd d03d d56c 2cbe b7e5 97b8 23d2 13b7
00000370: caca bd3e e483 3c3f 1c7f 0fbf 4f32 17be
00000380: 3494 993e 0ad6 16be 09d0 163f 8ba1 16bf
00000390: 440a 2c3f 5490 5ebd 5cdd 70bd 8cf4 af3d
000003a0: 75f1 293e 4f3f c236 e6cf 16be fa59 123f
000003b0: 15d0 16be 3021 25be 2082 273f 24e1 c2be
000003c0: 900f 7abe 0d1b 163e e51b 11bf 2ec0 0fbc
000003d0: 52d1 16be 05fb debe 51c7 f53c 44aa 1a3e
000003e0: e5cf 163f 4d50 1c3e f9cf 163f 0d29 1e3e
000003f0: 4e4e 183e 0604 f034 07ce 163e e6d1 96be

fcl.weight f4 [10, 16]
-0.73020947 -1.9776082 -0.22547804 0.3812184 0.28697115 -1.385443 1.3342516 1.1862333
1.1120663 -1.6207324 -1.0060974 0.09044604 -1.7391444 -0.7949377 0.03344757 -1.58185
0.39551857 0.55585843 -1.0447804 -1.7020372 -1.7721953 -1.1552793 -1.1891003 -1.7107526
1.5819643 0.29870936 1.1864673 -0.5539154 0.7909971 -0.5468015 -0.45541096 -0.79660374
-0.71975386 0.79098207 -0.1787741 -0.46511698 0.7911255 1.3512409 -0.27089813 -1.1864743
0.77135414 -0.8105891 -1.1864877 -0.39655077 -1.0680602 -0.12656681 0.13753499 -1.0568874
-0.7909859 1.5819663 -0.81965506 -0.58257806 -0.3597641 -0.78108233 0.3953348 -0.27246404
-0.15495048 -0.39553356 -0.6484173 -0.3954821 -0.3954898 -0.05772325 -0.3954934 1.3925917
1.2321538 -0.067831606 -1.1864738 0.79209936 0.9365869 -0.39549077 -1.0545605 -0.6464154
-1.0095115 -1.914535 -1.1864719 -0.7910302 1.0778749 -0.5076117 -0.56217843 -0.7907103
-0.5363399 -0.44457975 -0.098980896 -0.0017378641 -0.39539954 -0.3954922 -0.19196069 -0.22966976
-0.79098225 1.5771694 -1.1565652 0.32220888 -0.4654436 -0.79098344 1.3138144 0.40653044
0.91017824 -1.3191327 -0.16430509 -0.26949432 -1.6082386 0.9294196 -0.7036485 1.7056376
-0.79098725 0.3400742 -1.5121721 -1.4413064 -1.1885632 -1.1869324 -0.7908617 -1.1858181
-1.078471 0.30513728 -1.5052644 -0.14065263 -1.2967354 0.7930871 0.7924376 -1.1168925
-1.1864828 -1.7880945 1.5293385 -0.39548934 0.366588 0.43813953 0.7909821 -1.0678915
0.39561015 -0.9354753 1.581966 -0.4137725 -0.38701463 -0.79159933 -0.23128144 -1.0341911
-0.18974945 -0.6293492 -0.44133204 -0.39581612 -0.5313666 0.6451593 -0.7922677 0.24801426
-0.85223097 -1.1864765 -1.1932272 0.5667607 7.6108474e-05 -0.787019 -1.0212592 -0.33179304
-0.76840085 -0.15354818 -0.8328167 1.4914 0.5260754 0.8618481 -0.48216915 -6.4421437e-07
00000000: 02ef 3abf 4422 fdbf b7e3 66be 0f2f c33e
00000010: e2ed 923e 3256 b1bf c2c8 aa3f 7ed6 973f
00000020: 3058 8e3f 2974 cfbf cdc7 80bf c63b b93d
00000030: 499c debf 0981 4bbf 5200 093d 107a cabf
00000040: 6981 ca3e bd4c 0e3f 5dbb 85bf 5bdc d9bf
00000050: 4cd7 e2bf 31e0 93bf 7034 98bf f1f9 dabf
00000060: ce7d ca3f 6ff0 983e 29de 973f 66cd 0dbf
00000070: c97e 4a3f 2ffb 0bbf a02b e9be 39ee 4bbf
00000080: ca41 38bf cd7d 4a3f 8f10 37be d023 eebe
00000090: 3387 4a3f 76f5 ac3f 29b3 8abe 64de 97bf
000000a0: 7777 453f c482 4fbf d4de 97bf b408 cbbe
000000b0: 32b6 88bf bb9a 01be f9d5 0c3e 1648 87bf
000000c0: 0d7e 4abf df7d ca3f ead4 51bf d623 15bf
000000d0: 0033 b8be 03f5 47bf 5369 ca3e 6880 8bbe
000000e0: 57ab 1ebe 6083 cabe adfe 25bf a17c cabe
000000f0: a47d cabe 376f 6cbd 1c7e cabe 7240 b23f
00000100: 37b7 9d3f 4ceb 8abd 60de 97bf 06c7 4a3f
00000110: 29c4 6f3f c47d cabe d7fb 86bf 7b7b 25bf
00000120: ac37 81bf 7c0f f5bf 50de 97bf f580 4abf
00000130: cef7 893f d7f2 01bf edea 0fbf fd6b 4abf
00000140: 924d 09bf f59f e3be 7fb6 cabd 0bc9 e3ba
00000150: cf71 cabe f47d cabe 5891 44be 8d2e 6bbe
00000160: d07d 4abf b0e0 c93f 540a 94bf 90f8 a43e
00000170: a04e eebe e47d 4abf 122b a83f c224 d03e
00000180: 7101 693f 57d9 a8bf 983f 28be 29fb 89be
00000190: c3da cdbf 71ee 6d3f 4f22 34bf 5552 da3f
000001a0: 247e 4abf 351e ae3e db8e c1bf ba7c b8bf
000001b0: d722 98bf 67ed 97bf ea75 4abf e3c8 97bf
000001c0: 560b 8abf f43a 9c3e 81ac c0bf 3e07 10be
000001d0: 6dfb a5bf c207 4b3f 31dd 4a3f 55f6 8ebf
000001e0: abde 97bf 48e0 e4bf 5dc1 c33f 947d cabe
000001f0: 6cb1 bb3e d353 e03e ce7d 4a3f abb0 88bf
00000200: 6a8d ca3e 4f7b 6fbf dd7d ca3f fdd9 d3be
00000210: c826 c6be 41a6 4abf 0bd5 6cbe 6060 84bf
00000220: ae4d 42be 071d 21bf 46f6 e1be 69a8 cabe
00000230: a407 08bf 2929 253f 0ed2 4abf 73f7 7d3e
00000240: cf2b 5abf 76de 97bf abbb 98bf 3b17 113f
00000250: 6d9c 9f38 147a 49bf 9fb8 82bf c7e0 a9be
00000260: ebb5 44bf bc3b 1dbe 7a33 55bf 32e6 be3f
00000270: e1ac 063f 14a2 5c3f e0de f6be 13ee 2cb5
