BitNetMCU/modeldata/opt_Cosine_lr0.001_Aug_BitMnist_PerTensor_4bitsym_RMS_width16_16_0_bs128_epochs60.pth (torch, 54618 bytes, 3 tensors)

fc1.weight f4 [16, 784]
0	0x3daa5ed0	0.08318865
1	0x3d671d5f	0.056424495
2	0x3dd2f463	0.10300519
3	0x3d4d06e8	0.050055414
4	0x3dbfb108	0.09359938
5	0x3dbc59ad	0.09196792
6	0x3de4725a	0.11154623
7	0x3dafe10e	0.08587848
8	0x3da03909	0.078233786
9	0x3c53590b	0.0128996475
10	0xbd82f8d3	-0.06395116
11	0xbe15595d	-0.1458487
12	0xbe4969e7	-0.19669305
13	0xbe628392	-0.22120503
14	0xbe80b8e6	-0.25141066
15	0xbe2d1f7a	-0.16906539
16	0xbdf0e496	-0.11762349
17	0xbdc71fc5	-0.097228564
18	0xbd05408c	-0.03253226
19	0x3c26dec1	0.010184945
20	0x3d30f04b	0.04319791
21	0x3d71ce51	0.05903465
22	0x3d900a4b	0.07033213
23	0x3d9081bd	0.070559956
24	0x3d9a7206	0.075412795
25	0x3d4bd447	0.04976299
26	0x3db07ab2	0.08617152
27	0x3dcbc6f3	0.09950056
28	0x3d9fe175	0.078066744
29	0x3da4488e	0.08021651
30	0x3d3ed5f2	0.046590753
31	0x3db09001	0.086212166
32	0x3dacc81b	0.084366046
33	0x3e014fa4	0.12628037
34	0x3dc1acbd	0.09456775
35	0x3e22028e	0.15821287
36	0x3dc323fc	0.09528348
37	0xbd42c9ce	-0.047555737
38	0xbde96a8d	-0.11397276
39	0xbe6fee0b	-0.2343065
40	0xbe57099f	-0.20999764
41	0xbe71fea8	-0.236323
42	0xbdece12b	-0.11566385
43	0xbd4255cb	-0.0474451
44	0xbdecb076	-0.11557095
45	0xbd8d0b4a	-0.06886919
46	0x3a4eef02	0.00078938913
47	0xbc51158b	-0.012761484
48	0xbc527da3	-0.012847337
49	0x3cc2d1dd	0.023781711
50	0x3c2de6fe	0.010614155
51	0x3c96e956	0.01842181
52	0x3c321f6f	0.010871752
53	0x3d1a4370	0.03766197
54	0x3d840e08	0.06447989
55	0x3d776867	0.0604023
56	0x3dc973a0	0.09836507
57	0x3de57f0e	0.112058744
58	0x3d77ef79	0.060531113
59	0x3de6ae41	0.11263705
60	0x3de4dca7	0.111748986
61	0x3e224626	0.15847072
62	0x3e252bbe	0.16129968
63	0x3e6d071a	0.2314724
64	0x3da7b515	0.081888355
65	0xbd67fc67	-0.056637194
66	0xbe911356	-0.28335065
67	0xbed06ef5	-0.40709653
68	0xbe6dbc02	-0.2321625
69	0xbd8afcd6	-0.06786506
70	0x3a635b13	0.0008672934
71	0x3c6cf9e7	0.014463878
72	0xbc971779	-0.01844381
73	0x3d0f9a86	0.035059474
74	0x3c3a09c6	0.011354869
75	0x3d1e81ec	0.038698122
76	0xbc098c06	-0.008395201
77	0x3c5fd282	0.013661029
78	0x3b2b94ca	0.0026181214
79	0x3c74a9de	0.014933078
80	0x3c93551b	0.017984917
81	0x3c8910a1	0.016731562
82	0xbbb703a7	-0.005585152
83	0x3d8f33da	0.06992312
84	0x3d94d630	0.072674155
85	0x3d41e960	0.047341704
86	0x3d8846d8	0.066541374
87	0x3e18467c	0.14870638
88	0x3e0967a1	0.13418438
89	0x3e76564a	0.24056354
90	0x3e6269ee	0.22110721
91	0x3e3106da	0.1728777
92	0x3d9b6362	0.07587315
93	0xbe52a17a	-0.20569411
94	0xbf05c5dc	-0.52255034
95	0xbf2d90a0	-0.67798805
96	0xbeedd831	-0.46454003
97	0xbe27171d	-0.16317411
98	0xbdf38054	-0.11889711
99	0x3d46c918	0.04853162
100	0xbd881f99	-0.06646652
101	0x3cc898c5	0.024486909
102	0x3d34ae22	0.04411138
103	0x3d086917	0.033303346
104	0xbbf87a70	-0.007582955
105	0x3d952cef	0.07283961
106	0xbd065123	-0.03279222
107	0x3d5309ac	0.051522896
108	0x3c1b1bad	0.009467048
109	0x3d3f3526	0.046681546
110	0x3cb1c5aa	0.021700699
111	0x3d85cab0	0.065328
112	0x3da217cd	0.07914696
113	0x3d4acdb6	0.049512587
114	0x3e0f7a64	0.14011532
115	0x3e1d3243	0.15351205
116	0x3e5bf7a4	0.21481186
117	0x3e88820a	0.26661712
118	0x3e477462	0.1947799
119	0x3ddd2b5d	0.107992865
120	0xbe0c9120	-0.13727236
121	0xbf131310	-0.5745096
122	0xbf9301a9	-1.1484882
123	0xbfc27a82	-1.5193636
124	0xbf44bcd7	-0.76850647
125	0xbe044d39	-0.12920083
126	0xbb94a247	-0.0045359465
127	0xbba560d5	-0.0050469437
128	0xbbe5246e	-0.006992868
129	0xbdae869f	-0.08521771
130	0xbd41ef83	-0.047347557
131	0x3d6ed174	0.05830522
132	0xbc48a17e	-0.012245534
133	0x3c2ef530	0.010678574
134	0x3d0b4cea	0.034008898
135	0x3d3e2aec	0.046427652
136	0x3d2fc89c	0.042915925
137	0x3c2bc56b	0.01048408
138	0x3a2843ca	0.0006418793
139	0x3db93f5a	0.090452865
140	0x3d9e28dc	0.07722637
141	0x3d90d59f	0.07071995
142	0x3e21191f	0.15732239
143	0x3e6af6ea	0.22945753
144	0x3e619e5b	0.22033064
145	0x3e9db1f9	0.30799845
146	0x3e31ca86	0.17362413
147	0xbb5663ca	-0.0032713288
148	0xbeb636d6	-0.35588712
149	0xbf88eb52	-1.0696814
150	0xc00ef6ae	-2.2338061
151	0xc03bab25	-2.9323208
152	0xbfe14fc7	-1.7602471
153	0xbe52e5f2	-0.2059553
154	0x3de016d2	0.10941853
155	0x3d72fae1	0.059321288
156	0xbcdadf63	-0.026717847
157	0xbc7c3f52	-0.015395956
158	0xbde9a455	-0.11408297
159	0xbd641574	-0.05568452
160	0x3cc33f93	0.023834025
161	0x3d5a82b5	0.05334731
162	0x3d203d26	0.039120816
163	0x3d72f480	0.059315205
164	0x3ddb13ca	0.10697134
165	0xbda5a4f9	-0.08088107
166	0x3d43c366	0.04779377
167	0x3d3293ae	0.04359787
168	0x3dd5c80d	0.10438547
169	0x3d74b088	0.059738666
170	0x3e308a6e	0.17240307
171	0x3e5f1f01	0.21789171
172	0x3e72a63c	0.23696226
173	0x3e8ca19d	0.2746705
174	0x3e8a46d0	0.2700715
175	0x3e161ce0	0.14659452
176	0xbdee48e8	-0.116349995
177	0xbf8d472e	-1.1037347
178	0xc02984a4	-2.6487207
179	0xc0667f10	-3.6015053
180	0xbffdf753	-1.9841102
181	0xbe4c6752	-0.19961289
182	0x3d015ef8	0.03158471
183	0x3e27162e	0.16317055
184	0x3debdcb4	0.11516705
185	0x3d07bd28	0.033139378
186	0xbd629a02	-0.055322655
187	0xbd5a65c5	-0.05331971
188	0x3d65089b	0.05591641
189	0x38081349	3.2442887e-05
190	0xbcf1df04	-0.029525287
191	0x3d30fc04	0.04320909
192	0x3d7a1994	0.06105955
193	0x3cde6231	0.02714643
194	0x3d76e213	0.060274195
195	0x3ce1b669	0.0275528
196	0x3da64fe2	0.08120705
197	0x3dac0546	0.08399443
198	0x3e11efbe	0.1425161
199	0x3e5c3e3e	0.21508119
200	0x3e870781	0.26372913
201	0x3ea02ec5	0.31285682
202	0x3da2e804	0.0795441
203	0x3db1e119	0.08685512
204	0xbdba1f49	-0.090879984
205	0xbf558139	-0.83400303
206	0xc023191c	-2.5484076
207	0xc05ba76e	-3.432094
208	0xbfe9d950	-1.8269444
209	0xbe77b998	-0.24191892
210	0x3e343f84	0.17602354
211	0x3e1571cf	0.14594196
212	0x3dddbad6	0.10826652
213	0x3decd036	0.115631506
214	0x39935896	0.00028104027
215	0xbdc3438b	-0.09534367
216	0xbcaf3121	-0.021385731
217	0x3d340aab	0.043955486
218	0xbd5c7d50	-0.053830445
219	0x3d83422d	0.064091064
220	0xbd859a22	-0.06523539
221	0x3d656fcf	0.056014832
222	0x3da28351	0.07935203
223	0x3c3b0001	0.011413575
224	0x3d999193	0.07498469
225	0x3e1a7131	0.15082242
226	0x3e28829c	0.16456074
227	0x3e40ff54	0.188474
228	0x3e5e3d79	0.21703137
229	0x3e720fa9	0.23638786
230	0x3db80283	0.08984854
231	0x3e1774f4	0.14790708
232	0xbd2b8793	-0.04187734
233	0xbf291bdb	-0.6605813
234	0xc013e230	-2.3106804
235	0xc0572542	-3.361649
236	0xbffd1f46	-1.9775169
237	0xbe217975	-0.15768988
238	0x3e58a34e	0.21156046
239	0x3e81a8d7	0.25324127
240	0x3daf5001	0.085601814
241	0x3df6cc01	0.120506294
242	0xbd657606	-0.05602076
243	0xbdd29128	-0.102815926
244	0xbddf169e	-0.10892986
245	0xbd3e9ee2	-0.04653824
246	0xbd730d2d	-0.059338737
247	0x3c435792	0.011922734
248	0xbd221291	-0.039568488
249	0x3d7e9c5f	0.062160846
250	0x3e1224e3	0.14271884
251	0x3dd97ae7	0.10619145
252	0x3d5ec692	0.05438859
253	0x3db75edf	0.08953642
254	0x3e227531	0.15865017
255	0x3dd80128	0.105470955

fc2.weight f4 [16, 16]
0	0xbe41d000	-0.18927002
1	0x3f0e2f3a	0.5554081
2	0x3e8e2feb	0.27770934
3	0x3bdafffc	0.0066833477
4	0xbff8035b	-1.9376024
5	0x3f3c2600	0.73495483
6	0xbf0e2fdd	-0.55541784
7	0x3e8e303f	0.27771184
8	0x3e8e8db9	0.278425
9	0xbf0e2fc6	-0.55541646
10	0xbf48b312	-0.7839824
11	0x3f7d1fb1	0.9887648
12	0xbea79a94	-0.3273512
13	0x3d4604c3	0.048344385
14	0xbffb4065	-1.9629027
15	0x3ea3733b	0.3192385
16	0x34983b06	2.8355151e-07
17	0x3fb1bbaa	1.3885396
18	0xbfac56a2	-1.3463938
19	0xbf8e2fb2	-1.1108305
20	0x3e8e2f86	0.27770633
21	0x3faaaf5c	1.3334765
22	0xb94b3446	-0.00019379062
23	0x3f469dbb	0.7758443
24	0x3f0e2fda	0.55541766
25	0x35c6192c	1.4759476e-06
26	0xbe8e2fb4	-0.2777077
27	0x3dc02b02	0.09383203
28	0x3dda7ec0	0.10668707
29	0xbec2deef	-0.3806071
30	0xba5cabef	-0.0008417954
31	0x3eadb62a	0.33928043
32	0x3e982bfd	0.2972106
33	0x3fd7f983	1.687302
34	0x3f18b500	0.59651184
35	0x3e8e2f9a	0.27770692
36	0x3ece5af5	0.4030377
37	0x3f6ec1c3	0.93264407
38	0xbf8e2ee2	-1.1108057
39	0xbe8e2fb7	-0.2777078
40	0xbe4ab19f	-0.1979432
41	0x3aadabde	0.0013250073
42	0x3f8e312c	1.1108756
43	0xbe894157	-0.26807663
44	0x3f5525ab	0.832606
45	0xbe73b2c8	-0.23798668
46	0xbf55483e	-0.8331336
47	0x3f4a14cf	0.78938
48	0x3e8e32a3	0.27773008
49	0xbf856def	-1.0424174
50	0xbe92afb5	-0.2864968
51	0x3e9057d1	0.28192
52	0x3e8e2fb0	0.27770758
53	0xbf0e2f6f	-0.5554113
54	0x3f830e4e	1.023874
55	0x3f555f39	0.83348423
56	0x3f1e997c	0.6195295
57	0x3e8e2fa4	0.27770722
58	0x36e3130a	6.7673436e-06
59	0xbf5d2dfb	-0.86398286
60	0x3fb1bbaa	1.3885396
61	0x3ee157be	0.44012254
62	0xb51c56d3	-5.8240875e-07
63	0xbf6cb703	-0.92466754
64	0xbe8ede69	-0.2790406
65	0x3e22a7e4	0.15884358
66	0x3f0bf2a8	0.5466714
67	0x3e8c042a	0.27346927
68	0xb678b128	-3.7057998e-06
69	0x3e8bd248	0.2730887
70	0x3e684c18	0.22685277
71	0xbf0e2fbd	-0.5554159
72	0xbf0d4059	-0.5517631
73	0xbe94b400	-0.2904358
74	0xbf554809	-0.8331304
75	0xbd8e4688	-0.069470465
76	0x3f0e2f7c	0.55541205
77	0x3f56351f	0.83674806
78	0x3f1a9e62	0.60397923
79	0x3f549709	0.8304296
80	0x3f0952f4	0.536422
81	0xbf654162	-0.8955289
82	0xb574ca38	-9.119135e-07
83	0x3e44cc7f	0.19218634
84	0x3fb22f1e	1.3920629
85	0xc01b5748	-2.4272022
86	0xbf0e29f2	-0.55532753
87	0x3e812258	0.25221515
88	0x3e6bf5a9	0.2304293
89	0xbd32b024	-0.043625012
90	0xbe8e2fcc	-0.2777084
91	0xb60ff2f2	-2.1450073e-06
92	0xbf998686	-1.1994178
93	0x3e69e995	0.2284301
94	0x3dc914d6	0.09818427
95	0x3f4c4fd4	0.7980931
96	0x352cb407	6.433697e-07
97	0xbfd44eb3	-1.6586517
98	0xbdfcf379	-0.12351126
99	0xbe8e2fe7	-0.27770922
100	0x3e8e2faa	0.2777074
101	0xbfe5dadc	-1.7957416
102	0x3e8debae	0.27718872
103	0x3e6f55a2	0.2337251
104	0xbcea674e	-0.028613713
105	0x3f554758	0.83311987
106	0x3f78b047	0.9714398
107	0xbbae7142	-0.00532356
108	0xbe998a84	-0.29988492
109	0x3f9113d5	1.1334177
110	0x3f8e2fc2	1.1108325
111	0xbf54f181	-0.83181006
112	0x3eb4a05b	0.35278592
113	0xbe90020f	-0.2812657
114	0x3e8e2f37	0.27770397
115	0x3e1f86f8	0.1557883
116	0xbfa4c85e	-1.2873647
117	0xbe8e2fd7	-0.27770874
118	0x3f42cbc0	0.7609215
119	0x3f0e2fdd	0.55541784
120	0x3ee852f6	0.45375794
121	0x3f4c01b8	0.7969012
122	0x3f5546a1	0.83310896
123	0x35c8fd7a	1.4974933e-06
124	0x3ee428e1	0.44562438
125	0x3e52a3e5	0.20570333
126	0xbfc94bbc	-1.5726237
127	0xbf14abda	-0.58074725
128	0x3f443a50	0.7665148
129	0xbf424336	-0.75883806
130	0x3e8e2fb0	0.27770758
131	0x3ebcf483	0.36905298
132	0x3e8e2fb2	0.27770764
133	0xbedcf4cb	-0.43155512
134	0xbfb25001	-1.3930665
135	0xb4494918	-1.8746175e-07
136	0x3e8e604e	0.2780785
137	0xbfbcaa74	-1.4739518
138	0xbf564d4b	-0.8371169
139	0xbe16f5b4	-0.14742166
140	0xbd989f4e	-0.0745226
141	0x3f8d95ba	1.1061318
142	0x3f0e2f81	0.55541235
143	0xbf1c3358	-0.61015844
144	0x3f753e3b	0.9579808
145	0x3f0e2fc4	0.55541635
146	0x3e910458	0.28323627
147	0x3f55458e	0.8330926
148	0x3d98e4b0	0.07465494
149	0x3e9c7b4d	0.3056282
150	0xbe8e2fc0	-0.27770805
151	0xbfb19ef2	-1.3876631
152	0xc02dbdd0	-2.7147102
153	0x3f2e335e	0.6804713
154	0x3f118474	0.5684273
155	0xbf0e5b94	-0.5560849
156	0xbe54fc13	-0.20799284
157	0x3d6720fe	0.05642795
158	0x3e8e2f32	0.27770382
159	0x3f8dbbae	1.10729
160	0x3e8ea287	0.27858374
161	0x3f3603ff	0.7109985
162	0x3e8a426b	0.27003798
163	0x3f0a55f1	0.54037386
164	0x3f716981	0.9430161
165	0x3e8e2f7b	0.277706
166	0xbc381500	-0.011235476
167	0xbe8e2fa0	-0.2777071
168	0xbfb1ba0d	-1.3884903
169	0x3f554882	0.83313763
170	0x3ea8a7a1	0.3294039
171	0xb60f7b61	-2.1380476e-06
172	0xbf8e23be	-1.1104658
173	0x3f0e304a	0.55542433
174	0xbe8e2ffa	-0.27770978
175	0xbf8e352b	-1.1109976
176	0xbe8e2b52	-0.27767426
177	0x3ccde2e6	0.025132608
178	0x3f1585bf	0.58407205
179	0x3f8e2fac	1.1108298
180	0xb9968f52	-0.0002871701
181	0xb6cbff35	-6.0795815e-06
182	0xbe974804	-0.2954713
183	0x3f65f91a	0.89833224
184	0xbf8b8e81	-1.0902864
185	0xbe2b78c8	-0.16745293
186	0x3e8e3c2f	0.2778029
187	0xbf8ac2bd	-1.084068
188	0x3e8d0b9d	0.27547923
189	0x3eb73e26	0.35789603
190	0xb730ce50	-1.0538453e-05
191	0x3d01eb7d	0.03171872
192	0x3f1a9501	0.6038361
193	0xbf8eab6c	-1.1146064
194	0x3ece548e	0.40298885
195	0x3eab3444	0.33438313
196	0xbf2bdc26	-0.67132795
197	0x3e9afe82	0.302723
198	0xbf0e2fb2	-0.5554153
199	0xbe8e2fc5	-0.2777082
200	0x3d8d449e	0.06897853
201	0xbf554767	-0.83312076
202	0xbe8e07e3	-0.27740392
203	0x3f84bb04	1.0369573
204	0x3da7770c	0.08177003
205	0x3f8e2fb4	1.1108308
206	0x3f30454b	0.6885573
207	0xbe8e2f55	-0.27770486
208	0xbf562375	-0.83647853
209	0xbf0e32b0	-0.55546093
210	0xbe8e304b	-0.2777122
211	0xbefd700e	-0.49499553
212	0xbe8e2fba	-0.27770787
213	0x345d2188	2.0594427e-07
214	0x3f5547b8	0.8331256
215	0x3f8e2fb9	1.1108314
216	0xb3cd57fc	-9.562061e-08
217	0x3f1cceab	0.6125285
218	0x3e8e2fb9	0.27770784
219	0x3f8e2fb5	1.1108309
220	0xba8fb2af	-0.0010963286
221	0xbf0e2fce	-0.55541694
222	0xbe8d2601	-0.27568057
223	0x3e437ebe	0.19091317
224	0xbf4f4edb	-0.809797
225	0x3f4eaa31	0.8072844
226	0xbfd547bc	-1.6662517
227	0xbfb1bbb0	-1.3885403
228	0x3f0e2fea	0.5554186
229	0xb5b531c5	-1.3500036e-06
230	0x3f6561f3	0.89602584
231	0x3f267c75	0.65033656
232	0x34c200df	3.613595e-07
233	0x3e400e04	0.18755347
234	0xbf0e2fad	-0.555415
235	0xbe9eaec7	-0.3099272
236	0x3f57ac97	0.84247726
237	0x3f8b1ae7	1.0867585
238	0x3f05f295	0.52323276
239	0x3ed7113a	0.4200533
240	0x3fa4a3ef	1.2862529
241	0xbf3a3e36	-0.72751176
242	0x3f8e2ba5	1.1107069
243	0x3f8e2faf	1.1108302
244	0xbf554847	-0.8331341
245	0xbe27a0e5	-0.1636997
246	0x3e4058fe	0.18783948
247	0xbcc34240	-0.023835301
248	0x3f71beed	0.94431955
249	0xbf554818	-0.8331313
250	0x3e00e57a	0.12587538
251	0xbe1d5d72	-0.15367678
252	0x3d8ac144	0.06775144
253	0xbe8e3d39	-0.27781084
254	0xbf0e7a5c	-0.55655456
255	0xb60c13fc	-2.0873258e-06

fcl.weight f4 [10, 16]
0	0xbee6c4f5	-0.4507214
1	0xbf7302ca	-0.9492613
2	0xbfc0add3	-1.5053047
3	0xbfb4eb07	-1.4134225
4	0xbfb128b8	-1.3840551
5	0xb9d44a5e	-0.000404912
6	0x3fe695df	1.8014487
7	0xbfb9a1e7	-1.4502534
8	0xc001cb33	-2.0280273
9	0xbee6960a	-0.45036346
10	0x3f88a77a	1.067611
11	0xbe13dc4c	-0.14439505
12	0xb5978a4f	-1.129063e-06
13	0x3e5d5001	0.2161255
14	0xbfb78a15	-1.4339014
15	0xbfacf15d	-1.3511158
16	0xbfacf080	-1.3510895
17	0x3f31df4a	0.6948134
18	0xbfb70602	-1.4298708
19	0x3facefb6	1.3510654
20	0xbc82212c	-0.015884958
21	0xc002499c	-2.0357428
22	0xbf670d14	-0.9025433
23	0x3ee55b59	0.44796255
24	0x3ec63a4d	0.38716355
25	0xb61e3f4e	-2.3580683e-06
26	0xbec2f7a0	-0.38079548
27	0x3faa6201	1.3311158
28	0xb5c04ed3	-1.4328056e-06
29	0xbf6695c8	-0.900723
30	0x3884661f	6.313272e-05
31	0x402fa12a	2.7442117
32	0x36ba5f14	5.5543005e-06
33	0xbfb2cf70	-1.3969555
34	0xbe4f3571	-0.2023523
35	0x3facb2cb	1.3492063
36	0x3f6695c2	0.9007226
37	0xbee79c35	-0.45236364
38	0x3f58bd27	0.84663624
39	0xbf294eb2	-0.66135705
40	0xbf66963b	-0.90072984
41	0xbf78cbfb	-0.9718625
42	0xbf903ee5	-1.1269194
43	0xbe6aeb8f	-0.22941421
44	0xbf007b9e	-0.50188625
45	0xbf4042a9	-0.75101715
46	0x3fbe4a5a	1.486644
47	0xbfa9d2b3	-1.3267425
48	0xbfcc6fa9	-1.5971576
49	0x3facf064	1.3510861
50	0xb8023d8c	-3.1051735e-05
51	0xbf6d1be4	-0.9262068
52	0x3ee695e1	0.45036224
53	0xbfe6960b	-1.801454
54	0xbee695b7	-0.45036098
55	0xbf8f0d47	-1.1175927
56	0xbee6961b	-0.45036396
57	0xbf482c1f	-0.78192323
58	0x3f48f93c	0.785053
59	0x3f6697f1	0.90075594
60	0xbf6ac338	-0.9170413
61	0x3e3641d4	0.17798549
62	0x3f99a593	1.2003654
63	0xbee4fd45	-0.4472448
64	0x3fec484b	1.8459562
65	0xbef9bcb7	-0.4877679
66	0x3f4649eb	0.7745654
67	0xbf8912c2	-1.070885
68	0xbeaf05e3	-0.3418418
69	0x3fe695da	1.8014481
70	0xbfacf064	-1.3510861
71	0xba58703e	-0.00082564715
72	0xbf55be73	-0.8349373
73	0xbf6698b0	-0.9007673
74	0xbf9dbdcb	-1.2323545
75	0xbfa2c29f	-1.2715644
76	0x3d2ea5f2	0.042638727
77	0xbfacf0be	-1.3510969
78	0xbf2a0e91	-0.66428477
79	0x3ef68cd1	0.4815431
80	0xbfacf075	-1.3510882
81	0xbee69564	-0.4503585
82	0x3f6695de	0.9007243
83	0xbee695a0	-0.4503603
84	0x3f2026c0	0.6255913
85	0xbfacf08f	-1.3510913
86	0xbee695ad	-0.4503607
87	0xbee69b2e	-0.45040268
88	0xbdc11fd0	-0.09429896
89	0x3fccdeb9	1.600547
90	0x3f6695d2	0.9007236
91	0xbf7f0849	-0.9962202
92	0xbed33b8e	-0.41256374
93	0xbf6247ec	-0.88390994
94	0xbf4109f1	-0.75405794
95	0xbfa3aa73	-1.2786392
96	0xbb0bc53b	-0.0021327275
97	0xbf8ea798	-1.1144896
98	0xbff32af0	-1.8997478
99	0xbfad17e2	-1.3522913
100	0x3d950db5	0.07278005
101	0x3f47538f	0.77861875
102	0x3edcad2a	0.43100864
103	0xbf14fff4	-0.58203053
104	0x4002bc40	2.0427399
105	0x3f6695bf	0.90072244
106	0xb53b8b1c	-6.986536e-07
107	0xbee695ad	-0.4503607
108	0x3f6693b6	0.9006914
109	0xc008aa25	-2.1353848
110	0xbfacf12b	-1.3511099
111	0xbf5dcc65	-0.86640006
112	0xbf50b5b3	-0.8152725
113	0xbf0e242c	-0.55523944
114	0x3f5d9b38	0.8656497
115	0x3ee5b850	0.44867182
116	0xbfabe5d0	-1.3429508
117	0xbee6f5b7	-0.4510934
118	0xbf6695a1	-0.90072066
119	0x40101da9	2.2518103
120	0xbedb26e5	-0.42803112
121	0xbfadd700	-1.3581238
122	0xbfacfc62	-1.3514521
123	0xbe040996	-0.12894282
124	0xbfe6903b	-1.8012766
125	0x3f5c1e48	0.85983706
126	0x3f45a50b	0.7720496
127	0xbec58a8f	-0.38582274
128	0xc0101da2	-2.2518086
129	0xbee695ce	-0.45036167
130	0xbf1b9438	-0.6077304
131	0xbee6a606	-0.4504854
132	0x3f0bb48e	0.5457238
133	0xbfc45454	-1.5338235
134	0xbf6856b0	-0.90757275
135	0xbf9fb92c	-1.2478385
136	0xbee73cab	-0.45163473
137	0xbef18d3c	-0.47178066
138	0xbd2463cb	-0.040134232
139	0xbf6695d3	-0.90072364
140	0x3faf8eb1	1.3715421
141	0x3f6695d8	0.90072393
142	0xbf6695dd	-0.90072423
143	0xbf6695e8	-0.9007249
144	0x3fad21b3	1.3525909
145	0x3f3bdf4a	0.7338759
146	0x3ee695d6	0.4503619
147	0xbf49abe6	-0.7877792
148	0xbf17e58a	-0.59334624
149	0x3fac5fbc	1.3466716
150	0xbfadc206	-1.3574836
151	0xbeca0bac	-0.3946203
152	0xbfff29db	-1.9934648
153	0xbfacf0f2	-1.3511031
154	0xbee6e51e	-0.45096678
155	0xbee646cb	-0.44975886
156	0xbfa2e364	-1.2725644
157	0x3f6695c9	0.90072304
158	0xbff946ef	-1.9474772
159	0xbfdbf659	-1.7184554
